Experiment4/lstm_embeddings_weights.pth (torch, 729780 bytes, 7 tensors)

embedding.weight f4 [5439, 16]
0	0x3f9715b7	1.1803502
1	0x3ede0a15	0.43367067
2	0x407cbeda	3.9491487
3	0x3f72da8d	0.9486473
4	0x3e34b2f9	0.17646398
5	0x4026919f	2.602638
6	0x3e584c86	0.21122941
7	0xbf91bc39	-1.1385566
8	0xbfc00e5e	-1.5004385
9	0x4068487c	3.629424
10	0x3e06b572	0.13155153
11	0xbfbce14d	-1.4756256
12	0x3f083e30	0.5321989
13	0x3f164039	0.58691746
14	0xbd7e202e	-0.062042408
15	0xbf630ac0	-0.8868828
16	0xbf989625	-1.192082
17	0x3fdb10d4	1.711451
18	0x402caa50	2.697895
19	0xbeb1f12c	-0.34754312
20	0xbf6cce81	-0.925026
21	0xbf63314b	-0.8874709
22	0xbf09247b	-0.5357129
23	0xbec6cbf5	-0.38827482
24	0x401a2ae8	2.4088688
25	0x3fc0ec0d	1.5072037
26	0x3eca60e5	0.3952705
27	0x3fccdf6e	1.6005685
28	0xbf2e6e3e	-0.68136966
29	0x3f9cfd1e	1.2264745
30	0x400b9426	2.1809173
31	0xbfd5c6a3	-1.6701244
32	0xbff8dc42	-1.9442217
33	0xc03392d5	-2.805837
34	0xbf6bd311	-0.92118937
35	0x3eade3a4	0.3396274
36	0x3fe2ed1e	1.7728612
37	0xbf23e650	-0.64023304
38	0x3f4c9e7e	0.7992934
39	0xbeab8d6c	-0.33506334
40	0x3fe47ae1	1.785
41	0xbf9bc7a2	-1.2170298
42	0xbf18e784	-0.59728265
43	0xc00e07b2	-2.2192197
44	0xbff9caa5	-1.9514967
45	0x3f901a54	1.1258035
46	0x3ff50963	1.914349
47	0x3bba2f2a	0.005681892
48	0x3faab113	1.3335289
49	0x3eae73c9	0.34072712
50	0x3f8660a0	1.0498238
51	0xc03c623e	-2.9434962
52	0x3fa2a663	1.2707027
53	0x3f1edf00	0.6205902
54	0x3ffc06b9	1.9689552
55	0x3fd3ea3c	1.6555858
56	0x3f9939b6	1.1970737
57	0xbf6f5e17	-0.93502945
58	0xbfce3a30	-1.6111507
59	0xc05a4143	-3.4102333
60	0xbfc1e2db	-1.5147356
61	0x3fb7672b	1.4328359
62	0x3eb42629	0.35185364
63	0x3fd12c5d	1.6341664
64	0xbfc72af4	-1.5559983
65	0xbff6e3f6	-1.9288318
66	0xc046d95a	-3.107016
67	0xbdae4700	-0.08509636
68	0x3e3b6037	0.18298422
69	0xc002f673	-2.046292
70	0xbf94793b	-1.1599497
71	0xc0597a57	-3.398092
72	0x3ff9e314	1.9522424
73	0x3f8c35a5	1.0953871
74	0xbfb5e7f3	-1.421141
75	0x3f98d081	1.193863
76	0x3fcd9ba0	1.6063118
77	0xbfa01586	-1.2506568
78	0xbf252548	-0.6451001
79	0xc040a7d0	-3.0102425
80	0x3fa13288	1.2593546
81	0x3f4239d3	0.7586948
82	0x3f74a37f	0.95561975
83	0x401fe797	2.4985101
84	0xc0336f19	-2.8036559
85	0x3f3ca12f	0.73683447
86	0x40080eb4	2.1258974
87	0xbfbbc079	-1.4668113
88	0x403370ba	2.8037553
89	0xbf5e886a	-0.869269
90	0xbf9c6e0a	-1.2221081
91	0xbe34ec20	-0.176682
92	0xbfb5f831	-1.4216367
93	0x4067b336	3.6203132
94	0x3fb4b971	1.4119092
95	0x40321600	2.7825928
96	0x3f127f69	0.5722566
97	0xbde2b3ba	-0.11069436
98	0x3f3a1827	0.72693104
99	0x3fec28b0	1.8449917
100	0x3e2b1601	0.16707613
101	0xc0046a72	-2.068997
102	0x4052ea61	3.2955554
103	0x3f91c479	1.1388084
104	0x3f370210	0.7148752
105	0xbc33d2bd	-0.010975537
106	0xbef3809b	-0.47559056
107	0x3e4fc37f	0.2028942
108	0xc01c26bc	-2.4398642
109	0x401063ad	2.2560837
110	0x3f90a635	1.1300722
111	0x3fc3df4e	1.5302522
112	0x3f85c5c6	1.0450981
113	0xc001c1d2	-2.0274549
114	0x3fb432f9	1.4078056
115	0x3fe8a5f8	1.817565
116	0x4037a786	2.8695998
117	0x3fc9b715	1.5758997
118	0xbf3be99a	-0.7340332
119	0x3e1b9df2	0.1519697
120	0xbdfb12ea	-0.12259467
121	0xbfed83b7	-1.8555821
122	0xbf21c42f	-0.6318998
123	0xbf859e8c	-1.043901
124	0xbfc4b483	-1.5367588
125	0x3ef2487f	0.47320935
126	0x3ee18a64	0.44050896
127	0x3e748412	0.23878506
128	0xc0878507	-4.2349887
129	0xbcbdb8cd	-0.023159409
130	0x3f0d3e42	0.5517312
131	0xbf11f0cd	-0.5700806
132	0x3f6aa691	0.9166041
133	0x3f339611	0.7015086
134	0x404783a8	3.1174107
135	0xbfe74070	-1.806654
136	0x4033c1c5	2.8087018
137	0xbf40af9a	-0.75267947
138	0x3ef46222	0.4773112
139	0x3ffa062f	1.9533137
140	0x3fd3537b	1.6509851
141	0x3e3a78d7	0.18210159
142	0xbed47495	-0.41495195
143	0x404b94b8	3.180952
144	0x3f08742c	0.53302264
145	0xc048614d	-3.1309388
146	0x3f831cb2	1.0243132
147	0xbe6b88cd	-0.23001404
148	0x400f0b36	2.2350593
149	0x3e3d55f3	0.18489818
150	0x403ff8a7	2.9995515
151	0xbf85e38e	-1.0460069
152	0xbfd0cec3	-1.6313099
153	0x3e0f7511	0.14009501
154	0xbf872d7c	-1.0560756
155	0xc0868f04	-4.204958
156	0x3e108fb8	0.14117324
157	0x3f0f56d5	0.5599187
158	0xbfb63fef	-1.4238261
159	0x403d0ccb	2.9539058
160	0xc03966b9	-2.8968947
161	0xbf68d86f	-0.9095525
162	0x3eab58d0	0.33466196
163	0xbf49d0ae	-0.78834045
164	0xbf868621	-1.0509683
165	0xc02d3e5a	-2.7069306
166	0x400b7e02	2.179566
167	0xbfefb0b3	-1.8725799
168	0x4050fe39	3.2655165
169	0x406ab422	3.6672444
170	0x408d2d8c	4.41181
171	0xbf26969e	-0.65073574
172	0x4016bd66	2.35531
173	0xbf989784	-1.1921239
174	0xbe8e87f9	-0.27838114
175	0xbfc79c19	-1.5594512
176	0xc052e476	-3.2951941
177	0xbf816cb1	-1.0111295
178	0xbed88e31	-0.42295983
179	0x4050e3df	3.2639081
180	0xc03195da	-2.7747712
181	0xc02b9cbc	-2.6814413
182	0x40051dae	2.0799365
183	0x3fb3fe36	1.4061954
184	0x3c8d5711	0.01725343
185	0xc004b075	-2.07327
186	0xbf8819ab	-1.0632833
187	0x3ec7bc8f	0.39011046
188	0xc043420b	-3.050906
189	0xc0521158	-3.2823086
190	0x4005519a	2.0831056
191	0x3ec874c8	0.39151597
192	0xc07639cc	-3.8472776
193	0xbf872dd8	-1.0560865
194	0x3fe5a554	1.7941079
195	0x3fc4fc3a	1.5389473
196	0x3fa3ecda	1.2806656
197	0xbed26b72	-0.410976
198	0x3f378ce9	0.71699387
199	0x3ff7c598	1.9357176
200	0x3ef2e600	0.474411
201	0xc044efb8	-3.0771313
202	0x3f41df67	0.7573151
203	0x3f1e4eb3	0.61838835
204	0xc02e574f	-2.724079
205	0x3eee9aa0	0.46602345
206	0x406a45a3	3.6605003
207	0x3fedfa23	1.8591961
208	0x3f3c1d8a	0.73482573
209	0x4024cf90	2.5751686
210	0xbe6c1160	-0.23053503
211	0xbf46604b	-0.7749068
212	0x3e9bb328	0.30410123
213	0xc007e313	-2.1232345
214	0x400d2c5f	2.2058332
215	0xbf367056	-0.7126516
216	0x3f9cf2e3	1.2261623
217	0xbf51de1f	-0.81979555
218	0xbe221101	-0.15826799
219	0x3f8fa80e	1.1223161
220	0x3f6fb14c	0.9362991
221	0x3fa07310	1.2535114
222	0x3dc9d010	0.09854138
223	0x3fd6a553	1.6769203
224	0xbfb064dc	-1.378078
225	0x3e8cf4cd	0.27530518
226	0x3ce40923	0.027836388
227	0x3f24f78d	0.6444023
228	0x3f387355	0.7205098
229	0xbfb88f21	-1.441868
230	0xbe31345f	-0.17305134
231	0xbe2e0ca1	-0.16997005
232	0x4054ddd7	3.32604
233	0xbec9e35e	-0.3943128
234	0xbf26ada2	-0.6510869
235	0x4026c5a0	2.605812
236	0xbf983158	-1.1890059
237	0x3f9cd393	1.2252067
238	0x40151b08	2.3297749
239	0x3f98dc00	1.1942139
240	0x408d984f	4.4248424
241	0xbf89bf2a	-1.0761464
242	0x3cb9e730	0.022693247
243	0xbf4db3a5	-0.8035224
244	0xbe4ecd9d	-0.20195623
245	0xc004f24c	-2.0772886
246	0x3f24b1de	0.64333904
247	0xbed96efb	-0.42467484
248	0x3e9c89fe	0.3057403
249	0x4031c7e7	2.777826
250	0xbfa2ae9e	-1.2709539
251	0x3f9e6eef	1.2377604
252	0xbff68a45	-1.9260947
253	0x3edfddee	0.43724006
254	0xbddb36a5	-0.10703782
255	0xbfd9da36	-1.7019718

lstm.weight_ih_l0 f4 [64, 16]
0	0x3e5f2560	0.21791601
1	0x3daae1a9	0.083438225
2	0x400a450f	2.160465
3	0x3f970c2c	1.180059
4	0xbf8169c8	-1.0110407
5	0xbee16b56	-0.44027203
6	0x402bbd0b	2.6834133
7	0x3fabe4b2	1.3429167
8	0x3f07ff57	0.5312399
9	0xbfb79afe	-1.4344175
10	0x3ef7eb6f	0.4842181
11	0x4006c84e	2.1059756
12	0xc04598a9	-3.0874426
13	0x3f9faf7e	1.2475431
14	0xbc596404	-0.0132684745
15	0x3e1e5d24	0.15465218
16	0xbd437321	-0.047717217
17	0xbf715719	-0.94273525
18	0x3f90b26e	1.1304452
19	0x3f2f51fe	0.68484485
20	0x3ebd10ad	0.36926785
21	0xbfa13c39	-1.2596503
22	0x3f153157	0.5827841
23	0xbf611a0d	-0.87930375
24	0xbe6c09e9	-0.23050655
25	0xbdda6094	-0.10662952
26	0xbea3e39a	-0.32009584
27	0x3e44b359	0.1920904
28	0xbf88fec4	-1.0702748
29	0xbe8a851b	-0.27054676
30	0xbea3ec2f	-0.3201613
31	0x3f94a1fd	1.1611935
32	0x3f0654b0	0.5247297
33	0xc000fd55	-2.0154622
34	0x3fb93911	1.447054
35	0x4002965d	2.0404274
36	0xbfa4e98f	-1.2883776
37	0xc00a6dd6	-2.1629539
38	0x3f82b11d	1.0210301
39	0xbf0acec9	-0.5422178
40	0x3f503267	0.8132691
41	0x3ec66257	0.38746902
42	0x3fb67bbe	1.4256513
43	0xbe0ad077	-0.13556086
44	0xbea82b9c	-0.3284577
45	0x3f7b424c	0.98148036
46	0x3f71e87c	0.9449537
47	0x3fb622c6	1.4229362
48	0xbea95380	-0.33071518
49	0xbeb74e04	-0.3580171
50	0xbefadf22	-0.48998362
51	0x3e02bfc3	0.12768464
52	0xbecaa286	-0.3957712
53	0xc0290122	-2.6406941
54	0xbf3e44c9	-0.7432371
55	0xbfd62a7c	-1.6731715
56	0x3f4e9a9f	0.80704683
57	0x3dc9e8b4	0.09858838
58	0xbe95dd38	-0.2927034
59	0xbf96efb5	-1.1791903
60	0xc0138a6a	-2.3053231
61	0x3f66f215	0.9021314
62	0x3f9eabb0	1.2396145
63	0x4023ee35	2.561414
64	0xbf1fee81	-0.62473303
65	0x3f9cb124	1.2241559
66	0x3ed7850f	0.42093703
67	0x3e6033d2	0.21894768
68	0x3f852467	1.0401734
69	0xbfae3882	-1.3610995
70	0x3fcad790	1.5847034
71	0x3d857428	0.06516296
72	0xbf76b4e6	-0.9636978
73	0x3fbf6429	1.4952441
74	0x3dd9d42f	0.10636174
75	0xbf397f80	-0.72460175
76	0xbfd9afb7	-1.7006749
77	0x3fb586af	1.4181727
78	0x3ecdfc54	0.40231574
79	0xbede9fdf	-0.43481347
80	0x3f04d042	0.51880276
81	0x3e2a7b90	0.16648698
82	0xbf9a77f9	-1.2067863
83	0x3e9c5f1f	0.30541322
84	0x3fc65518	1.5494719
85	0xbf547d71	-0.8300391
86	0x3f2b2c14	0.6686413
87	0xbf2fab0c	-0.6862037
88	0xbf8988fc	-1.0744929
89	0xbe036be3	-0.12834124
90	0xbfaf359b	-1.3688234
91	0xbdbc0500	-0.09180641
92	0xbf236ec1	-0.6384087
93	0x3edf1859	0.43573263
94	0x3f4ac687	0.7920918
95	0x400c6e65	2.194238
96	0xbf1320a4	-0.5747168
97	0x400d37c5	2.206529
98	0x3fc277da	1.5192826
99	0xbfdb557d	-1.7135464
100	0x3f5baa3b	0.85806626
101	0xbe8e42d0	-0.2778535
102	0x40379a4d	2.8687928
103	0xc02f309e	-2.7373424
104	0xbf44b372	-0.7683631
105	0xbf8aa49c	-1.0831485
106	0x3f2f7b98	0.68547964
107	0x3e0a0017	0.13476597
108	0x3ef44040	0.4770527
109	0xbf22a3e2	-0.63531315
110	0x3fce3647	1.6110314
111	0x4007877d	2.1176445
112	0xbdeee5d1	-0.11664928
113	0x3eb5576a	0.35418254
114	0x3f978052	1.1836035
115	0xbdd22bd1	-0.102622636
116	0x3fad8a75	1.3557879
117	0xbf75caa2	-0.9601232
118	0x3fbfa7fa	1.4973137
119	0x3faa135c	1.3287158
120	0x3fe09f8c	1.754869
121	0x3e1ed29f	0.15510033
122	0x3f9d1a8d	1.2273728
123	0x3f226342	0.63432705
124	0xbf955275	-1.1665789
125	0x3f5ebc65	0.8700622
126	0x3bcd08a3	0.006257133
127	0x3f279db5	0.65475017
128	0xbfd0bb00	-1.6307068
129	0xbf1e7c1d	-0.6190813
130	0x402bbb7a	2.6833177
131	0x3fb6aad6	1.4270885
132	0xbf808f00	-1.004364
133	0xc011db45	-2.2790082
134	0x401129ef	2.2681844
135	0xc007f4a3	-2.1243064
136	0xbf366a42	-0.71255887
137	0xbf37dc6b	-0.71820706
138	0xbeb3318c	-0.3499874
139	0xc01c3325	-2.4406216
140	0x3f635297	0.887979
141	0x3ff3bdeb	1.9042333
142	0xbf89d249	-1.0767299
143	0x3dc0df51	0.09417594
144	0x3e626746	0.22109708
145	0xbf304a5b	-0.6886346
146	0x3f0e4973	0.55580825
147	0x3f6d54b3	0.92707366
148	0x3f7e5ed2	0.99363434
149	0xc00e5ade	-2.224296
150	0x3faff785	1.3747412
151	0x3e39e742	0.18154624
152	0x3e8f35be	0.2797069
153	0xbe69bbda	-0.22825566
154	0xbdf62813	-0.12019362
155	0xbed00adf	-0.40633294
156	0xbf7c89de	-0.9864787
157	0x3e6279f8	0.2211684
158	0xbf1199b3	-0.5687515
159	0x3fb93d50	1.4471836
160	0xbf6fffd6	-0.9374975
161	0xbfc6f219	-1.5542632
162	0x3f13acde	0.5768565
163	0x3fa61781	1.2975923
164	0x3f52b070	0.8230047
165	0xbfb5620b	-1.4170545
166	0x3f611d06	0.8793491
167	0xbf1ba78e	-0.60802543
168	0x3d37c2e4	0.044863597
169	0x3f2adcbb	0.6674306
170	0x3f25b270	0.647254
171	0x3f96466e	1.1740243
172	0xbf30af4a	-0.6901747
173	0x3eccbe26	0.39988822
174	0xbd90a2f7	-0.07062333
175	0x3fa16fa2	1.2612193
176	0x3f900550	1.1251621
177	0xbf7b3155	-0.9812215
178	0x3ee66ba5	0.45004
179	0xbe05efea	-0.13079801
180	0x3fb6ca20	1.4280434
181	0xbf01e448	-0.50738955
182	0x400b1540	2.173172
183	0xbf92458a	-1.1427472
184	0x3e597da7	0.21239339
185	0x3f7c5e30	0.9858122
186	0xbf2219d4	-0.6332066
187	0x3f45234f	0.77007
188	0x3e4f0e23	0.20220236
189	0x3eaaee81	0.3338509
190	0x3f6eda42	0.93301785
191	0x3f879c2e	1.0594537
192	0xbfd11f0d	-1.6337601
193	0x3ef77855	0.48333994
194	0x3f8d8db4	1.1058869
195	0x3f369b51	0.71330744
196	0x3f12c8ef	0.5733785
197	0x3e9221b4	0.28541338
198	0x40067a39	2.1012099
199	0xbf845afc	-1.0340266
200	0x3fc9298e	1.5715806
201	0xbf873598	-1.056323
202	0xbf6ff5d9	-0.9373451
203	0x3ee07b18	0.43843913
204	0x3e460027	0.19335996
205	0x3f8bc84a	1.0920498
206	0x3e72da17	0.23716007
207	0x3f0017c5	0.5003627
208	0xbefa5bdf	-0.48898217
209	0xbdca7ea4	-0.09887436
210	0x3fdc7516	1.7223232
211	0xbe5cdd6c	-0.2156884
212	0x3f044a77	0.51676124
213	0xbf0066c6	-0.5015682
214	0x3fb6eab9	1.4290382
215	0x3e2ba6a8	0.16762793
216	0x3e97f387	0.29677984
217	0x3f12d716	0.57359445
218	0xbe90321f	-0.2816324
219	0xbf1598fd	-0.58436567
220	0xbf9d7d7e	-1.2303922
221	0x3e444529	0.19167008
222	0x3e8f2459	0.2795742
223	0x3fe6ce80	1.8031769
224	0x3fe22246	1.766671
225	0x3f0505a6	0.51961744
226	0x3ecccac2	0.39998442
227	0x3f499a77	0.7875132
228	0xbf2cffd5	-0.6757787
229	0xbe6b0624	-0.22951561
230	0x3f911228	1.1333666
231	0x3f373079	0.7155834
232	0x3f89ab1e	1.0755346
233	0xbd76e3d6	-0.060275875
234	0x3f792fc8	0.97338533
235	0xbd19644d	-0.03744917
236	0xbf9f03b6	-1.2423007
237	0xbf4e8732	-0.8067504
238	0x3f502e7a	0.8132092
239	0x3f522aba	0.82096446
240	0xbf662a66	-0.89908445
241	0xbf972371	-1.1807691
242	0x3fa097bc	1.2546306
243	0x3f67b1fb	0.9050595
244	0x3f5a8ea9	0.8537393
245	0xc0205ba3	-2.505593
246	0x3fe6d231	1.8032895
247	0x3f1babb3	0.6080887
248	0x3fc1c722	1.5138896
249	0xbf29c2d7	-0.66312927
250	0xbf3678e9	-0.71278244
251	0xbf45152c	-0.7698543
252	0xbf74c459	-0.956121
253	0xbf05cab5	-0.5226243
254	0x40268951	2.6021311
255	0x3f1d0b11	0.6134501

lstm.weight_hh_l0 f4 [64, 16]
0	0x4085fc72	4.187066
1	0xbe12cec3	-0.14336686
2	0x3ff5be63	1.9198726
3	0x3fff2294	1.9932427
4	0xc00a735f	-2.1632917
5	0x3ffaba00	1.9588013
6	0x3f9b8312	1.2149374
7	0xbf7b6c00	-0.9821167
8	0xbf9c7842	-1.22242
9	0x3e76c724	0.24099404
10	0x3ff17cf5	1.8866259
11	0xbd652625	-0.05594458
12	0x3e4753a1	0.19465496
13	0xc03f2be9	-2.987055
14	0x3f04f6c2	0.5193902
15	0xbfff2b0d	-1.9935013
16	0x3eda862b	0.42680487
17	0x3ff0b63e	1.8805616
18	0x3e9c2c1f	0.30502412
19	0x3eab3e3f	0.33445928
20	0xbf221afa	-0.6332241
21	0xbd9ed33a	-0.07755132
22	0x400da13a	2.2129655
23	0x3f045de5	0.5170577
24	0x3edeed1c	0.43540275
25	0xbf059c2b	-0.5219142
26	0xbf4c4bc1	-0.7980309
27	0xbf33e701	-0.7027436
28	0xbbeb6de1	-0.0071847294
29	0xbe8b79c3	-0.27241334
30	0xbf0ad68c	-0.5423362
31	0xbf082696	-0.5318388
32	0xbe8c13af	-0.27358767
33	0x3faf6c3a	1.3704903
34	0x4013485d	2.3012917
35	0x3ffb8d77	1.9652547
36	0xbfd38573	-1.65251
37	0x3f44b731	0.7684203
38	0x3e272a2e	0.16324684
39	0x3fb14d7b	1.385177
40	0xc0589c8d	-3.384555
41	0x3f4c229e	0.7974032
42	0xc00e8304	-2.2267466
43	0x3f91b998	1.1384764
44	0x3f986fff	1.1909178
45	0xbf652191	-0.89504343
46	0x3e74e5bb	0.2391576
47	0xbf94c3cf	-1.1622256
48	0x3f306d80	0.68917084
49	0x3f10599c	0.56386733
50	0x3fef8ba8	1.8714495
51	0x4041a201	3.025513
52	0xbf99db95	-1.2020136
53	0xbf688beb	-0.908385
54	0x3fc9bd37	1.5760869
55	0xbe3b10c5	-0.18268116
56	0xbf3437b9	-0.70397526
57	0x407825ee	3.877315
58	0xbfe7f8e0	-1.8122826
59	0xbeb2af3f	-0.34899327
60	0x3fc131ef	1.5093364
61	0xbfd8ee59	-1.6947738
62	0x3e1dddd2	0.15416649
63	0xc00a4247	-2.1602952
64	0x3f50a8e2	0.81507695
65	0x3fa99396	1.3248165
66	0x400c2837	2.1899545
67	0x3f7fe5a8	0.999598
68	0xbf95b21c	-1.169498
69	0x3f16f121	0.58961684
70	0x3f983f26	1.1894271
71	0x3fbbd517	1.4674405
72	0xbfc8082a	-1.5627491
73	0x3dd11084	0.10208228
74	0xbf84df86	-1.0380714
75	0x3fade836	1.358649
76	0x400373f1	2.0539515
77	0xbf7bc307	-0.98344463
78	0xbe93fa69	-0.28901985
79	0xc0164abf	-2.3483121
80	0x4005e7a9	2.0922644
81	0x3ef4a895	0.47784868
82	0x3ff3d512	1.9049399
83	0x3eed19dc	0.46308792
84	0xbf6f68df	-0.93519396
85	0x3fc594c9	1.5436031
86	0x3ffe6e0c	1.9877334
87	0x3f63257b	0.88729066
88	0x400c49bd	2.1920006
89	0x3fb0a24d	1.379953
90	0xc0049a59	-2.0719206
91	0x3fa32d7a	1.2748253
92	0x3ce4cecd	0.027930642
93	0xbf34df83	-0.7065355
94	0xbfa79b8a	-1.3094342
95	0xbfcc20db	-1.5947527
96	0x4007bce3	2.1209037
97	0x3f601f6c	0.87547946
98	0x3fd17155	1.6362711
99	0x400a27d5	2.1586812
100	0xc0586ded	-3.3817093
101	0x40184c26	2.3796477
102	0x408af2a3	4.3421187
103	0x3fa214a2	1.2662547
104	0xc017c2f6	-2.3712745
105	0x3fbcea78	1.4759054
106	0xbfe073d4	-1.7535348
107	0x3f8f5639	1.1198188
108	0x3fdd07fa	1.7268059
109	0xbfbb8e62	-1.4652827
110	0xc002c728	-2.0434055
111	0xbed82cd9	-0.42221716
112	0x3f9d1853	1.2273048
113	0x3e1e43ac	0.15455502
114	0x3fb1eabf	1.3899764
115	0x3fde1e57	1.7353009
116	0xc0120ac0	-2.2819061
117	0x3e9ce6ba	0.3064478
118	0x3fcf267d	1.6183621
119	0x3fcccce9	1.6000034
120	0xbebd933f	-0.37026402
121	0x3fde1419	1.7349883
122	0xbfc1573c	-1.5104747
123	0x3e2d03aa	0.16895929
124	0x3e720d4f	0.2363789
125	0xbfa4aa84	-1.2864537
126	0xbf7d2b2f	-0.9889402
127	0xbf91296e	-1.1340768
128	0x403753a4	2.86448
129	0x3fc28bd1	1.5198919
130	0x4035108f	2.8291357
131	0x4020c2c4	2.5118876
132	0xbfe936b8	-1.8219824
133	0xbeae1aaf	-0.34004733
134	0x3ff691f3	1.926329
135	0x3ff37c26	1.9022262
136	0xc08829a8	-4.255085
137	0x3fb34381	1.4004976
138	0xbf897b49	-1.0740749
139	0x401f0f87	2.4853227
140	0x400a7d9e	2.163917
141	0xbf94fd7d	-1.1639858
142	0xbf8eca79	-1.115554
143	0xc02acfea	-2.66894
144	0x3ef85953	0.4850565
145	0x3f44beb7	0.7685351
146	0x3fa1301c	1.2592807
147	0x3f75296e	0.9576634
148	0xbfde8221	-1.7383462
149	0x3f2846ff	0.6573333
150	0x3fa11d40	1.2587051
151	0x3f854cd6	1.0414073
152	0xbfb1970d	-1.3874222
153	0x4002e452	2.0451856
154	0xbf90d2f0	-1.1314373
155	0x3f3a9474	0.7288277
156	0x3e4e0a30	0.20121074
157	0xbfaedc1a	-1.366092
158	0xbfabe419	-1.3428985
159	0xbf4bd16f	-0.79616445
160	0xc0070152	-2.1094556
161	0x3fb7aadc	1.4349017
162	0x3fc1c429	1.5137988
163	0x400a18ae	2.1577563
164	0xbfb3946d	-1.4029671
165	0x3e3adab3	0.1824749
166	0x3f21aad2	0.63151276
167	0x3ef1bc09	0.47213772
168	0xbfcea015	-1.6142603
169	0x3ddd447e	0.108040795
170	0xc021eff9	-2.5302718
171	0xbfac3af1	-1.3455487
172	0xbedaacee	-0.4271006
173	0xbf69c0f9	-0.9131008
174	0xbfb7fa52	-1.4373267
175	0xbf2061b4	-0.62649083
176	0x3f3b33d9	0.7312599
177	0x3fd54bc2	1.6663744
178	0x3ff05596	1.8776119
179	0x3f490285	0.7851947
180	0xc033ef46	-2.811479
181	0xbed8867c	-0.42290103
182	0x3f9f1c5b	1.2430528
183	0x3f18be24	0.5966513
184	0x401feacb	2.4987056
185	0x3feea338	1.864356
186	0xc0088ea3	-2.1337059
187	0x4004d23c	2.0753317
188	0x3fe35a66	1.7761962
189	0xbf99e23e	-1.2022169
190	0xbfc9eb7e	-1.5774992
191	0xbfe08a35	-1.7542177
192	0x3f5c45f3	0.86044234
193	0x3f8f5ea5	1.1200758
194	0x3fd057d2	1.6276801
195	0x4018f071	2.3896754
196	0xbff347ae	-1.900625
197	0xbf0cb9fb	-0.54971284
198	0x3f181a25	0.59414893
199	0x3f51d742	0.8196908
200	0x3f52c9cf	0.82339185
201	0x3f4df3fa	0.80450404
202	0xc0159274	-2.3370638
203	0x3f8fc761	1.1232721
204	0x40659178	3.5870037
205	0xbf3e09a0	-0.74233437
206	0xbf8a463d	-1.0802685
207	0xbfaf3d8c	-1.3690658
208	0x3efd5be3	0.49484167
209	0x3f7bc2dd	0.9834421
210	0x3f4c8e4d	0.79904634
211	0x3f8a914a	1.0825589
212	0xbf8a7e80	-1.0819855
213	0xbe772311	-0.2413447
214	0x3fa6fa01	1.3045045
215	0x3f7c71ad	0.98610955
216	0x3e000e6a	0.12505499
217	0x3f2fdc57	0.68695587
218	0xbf5d6ccf	-0.86494154
219	0x3e970c74	0.29501688
220	0x3f33c822	0.70227253
221	0xbf817b72	-1.0115798
222	0xbf4ead55	-0.80733234
223	0xbf68bfa4	-0.9091742
224	0xbf89be1f	-1.0761145
225	0x3fb37017	1.4018582
226	0x3f83ffb2	1.0312407
227	0x3f1161cb	0.56789845
228	0xbeff3274	-0.4984318
229	0xbffcb128	-1.9741564
230	0xbf902bc8	-1.1263361
231	0xbf69fa08	-0.9139714
232	0xc026d75e	-2.606895
233	0x3f68faf4	0.91007924
234	0xbeed1ec4	-0.46312535
235	0x3eeda810	0.46417284
236	0x3f14d606	0.58139074
237	0xbeeb3f1b	-0.45946583
238	0xc096d7db	-4.7138495
239	0xbe741945	-0.23837765
240	0x3e1ad689	0.15120901
241	0x3f876e67	1.0580567
242	0x3f4e442c	0.8057277
243	0x3f45f31a	0.7732407
244	0xbfc67cbd	-1.5506817
245	0x3f908aaf	1.1292323
246	0x3f890a8e	1.0706346
247	0x3f62f797	0.8865904
248	0xbf1f114a	-0.62135756
249	0x3f3b5d12	0.7318889
250	0xbf56eb2f	-0.8395261
251	0x3ccf06e5	0.025271842
252	0x3f6ef27e	0.93338764
253	0xbf7c1411	-0.9846812
254	0xbf3afe77	-0.7304453
255	0xbfd9096d	-1.6956002

lstm.bias_ih_l0 f4 [64]
0	0x3f9d777d	1.230209
1	0x3f46c3a7	0.7764229
2	0x3ee3419d	0.44385996
3	0x400e681f	2.225105
4	0x3fa51f77	1.2900227
5	0x3fd2480f	1.642824
6	0x3f323079	0.69605213
7	0x3f92f9f3	1.1482528
8	0x3fcd3345	1.6031271
9	0x3f5eddc9	0.8705717
10	0x3f63d802	0.89001477
11	0x3f9edf32	1.2411864
12	0x3fcfa198	1.622119
13	0x3f7ab7fb	0.9793698
14	0x3f8f4d8d	1.1195542
15	0x3f52bb2b	0.82316846
16	0x3f7db28f	0.99100584
17	0x3f378863	0.71692485
18	0x3e1e717f	0.15472983
19	0xbe637554	-0.22212726
20	0x3f6910d5	0.9104131
21	0x400020f0	2.0020103
22	0x3e4f72f1	0.2025869
23	0x3e6ee90c	0.23331088
24	0x3e9366e3	0.28789434
25	0x3f183478	0.5945506
26	0x3f38b7b9	0.7215534
27	0x3eb45c9c	0.35226905
28	0x3e91ff80	0.28515244
29	0x3eee6949	0.465647
30	0x3f2019a6	0.62539136
31	0x3efd1a5c	0.49434173
32	0x3eb77e91	0.3583875
33	0x3f0b8b4f	0.54509443
34	0x3f10c73a	0.56553996
35	0xbe972f5b	-0.29528317
36	0xbf1bf03f	-0.6091346
37	0xbe228e45	-0.15874584
38	0x3ee04cd7	0.43808624
39	0x3ee42d59	0.44565848
40	0x3e0db355	0.13837941
41	0x3ed3feb6	0.41405267
42	0xbf130ad2	-0.57438385
43	0xbb30ea30	-0.0026995055
44	0x3d0c82cc	0.034304425
45	0xbf0b4cbc	-0.5441396
46	0xbf0fa210	-0.5610666
47	0xbea62ad3	-0.32454547
48	0x3f6827be	0.9068564
49	0x3f1cf2d0	0.61308
50	0x3f2ad247	0.6672711
51	0x3fa08e16	1.2543361
52	0x3f3f25bb	0.7466695
53	0x3fa5b54b	1.2945951
54	0x3f0ccf7f	0.55004114
55	0x3f95e6c1	1.1711046
56	0x3fdfccdb	1.7484392
57	0x3f790d98	0.9728637
58	0x3f31770b	0.6932227
59	0x3fa23441	1.2672197
60	0x3f981a29	1.1882983
61	0x3f7dfd0b	0.9921424
62	0x3f75d0e2	0.96021855
63	0x3ec689a3	0.38776883

lstm.bias_hh_l0 f4 [64]
0	0x3f5b9e7f	0.8578872
1	0x3f941384	1.1568456
2	0x3f494fdd	0.78637487
3	0x400258d8	2.0366726
4	0x3f7abfb9	0.97948796
5	0x3fb3bd6a	1.404218
6	0x3f1bc92b	0.6085383
7	0x3f8c3c89	1.0955974
8	0x3fe1b5eb	1.7633642
9	0x3f607d52	0.87691224
10	0x3f48b59f	0.7840213
11	0x3f7a94b1	0.97883135
12	0x3fdbbbca	1.7166684
13	0x3f8bed8f	1.0931872
14	0x3fa49084	1.2856603
15	0x3f44da72	0.7689582
16	0x3f58809c	0.8457124
17	0x3f2eea49	0.6832624
18	0x3ec81272	0.39076573
19	0xbe8956ad	-0.2682394
20	0x3f37f0c0	0.7185173
21	0x400fc9d6	2.246694
22	0x3e9c78e1	0.30560973
23	0x3dbd36bb	0.09238955
24	0x3f272a5e	0.6529902
25	0x3f1cc162	0.6123258
26	0x3ef7d8bb	0.4840754
27	0x3f13d7d5	0.5775121
28	0x3f0dedbb	0.5544087
29	0x3ea8b1da	0.3294819
30	0x3ec24527	0.37943384
31	0x3ebdd1c6	0.37074107
32	0x3e89df91	0.2692838
33	0x3f22d1c1	0.6360131
34	0x3eba2e20	0.36363316
35	0xbe0249a4	-0.12723404
36	0xbefb6a1e	-0.49104398
37	0x3e4a6689	0.19765677
38	0x3ede208b	0.43384203
39	0x3e54c59f	0.20778511
40	0x3e4777a3	0.19479232
41	0x3ee66804	0.45001233
42	0xbebd4dac	-0.3697332
43	0x3ebcc4d5	0.3686892
44	0x3b9092f4	0.0044120494
45	0xbf0dab4e	-0.55339515
46	0xbf1485ec	-0.5801685
47	0xbebeb7e2	-0.37249666
48	0x3f9b12cb	1.211511
49	0x3f35c0cb	0.70997304
50	0x3f15160e	0.5823678
51	0x3fa5ac8e	1.2943285
52	0x3efa6230	0.48903036
53	0x3fbfb78c	1.4977889
54	0x3f25162a	0.64486945
55	0x3f7ea501	0.99470526
56	0x3fdebd72	1.7401564
57	0x3f60de94	0.8783963
58	0x3f574457	0.84088653
59	0x3fb13c14	1.3846459
60	0x3f587af1	0.84562594
61	0x3f530e47	0.8244366
62	0x3f7fd69a	0.9993683
63	0x3f27ad84	0.6549914

fc.weight f4 [5439, 16]
0	0x3f394494	0.72370267
1	0x3f983b22	1.1893046
2	0x3faee93b	1.3664926
3	0x3fa10622	1.2579997
4	0xbfbf0a57	-1.492503
5	0x3edf670f	0.43633315
6	0x402dca3f	2.7154691
7	0x3fea39e4	1.8298917
8	0x3f27f4f3	0.6560814
9	0x3f9881b3	1.1914581
10	0x3f83cb4d	1.0296417
11	0x4001fc71	2.0310328
12	0x3f0f764f	0.560399
13	0x3f024492	0.5088588
14	0x3f04a732	0.5181762
15	0xbfd1dab6	-1.639487
16	0x40360441	2.8440096
17	0xbfb08ccb	-1.3792967
18	0x3f4206d0	0.75791645
19	0x3fba13df	1.4537314
20	0x404a6ee0	3.1630173
21	0x3e8d9ed5	0.27660242
22	0xc0295397	-2.645727
23	0x3ff271df	1.8941001
24	0xc04ac0d1	-3.1680186
25	0xc023fdc8	-2.5623646
26	0x403365e1	2.8030932
27	0x3ffbfa83	1.9685825
28	0x40004104	2.0039682
29	0x40239dcf	2.5565069
30	0x4007a78d	2.1196015
31	0xbe92bece	-0.28661197
32	0x3f82baf7	1.0213307
33	0xc0216cdf	-2.52227
34	0xbe9d8445	-0.30764976
35	0xc01da78c	-2.4633512
36	0x400073c2	2.0070653
37	0xc008a583	-2.135102
38	0xc0289e18	-2.6346493
39	0x3f9d54ed	1.2291542
40	0xc017e679	-2.373442
41	0x400742d3	2.1134536
42	0x4023103d	2.547866
43	0x3eefed13	0.4686056
44	0x3fb9ad93	1.4506096
45	0x3f0c7a17	0.54873794
46	0xbf7a032a	-0.9766108
47	0xbef3395e	-0.47504705
48	0x3fde33c6	1.735955
49	0xbfa459dd	-1.2839924
50	0x3fe33eb4	1.775351
51	0x40158796	2.3364005
52	0x3fec034f	1.843851
53	0xbfb6a7b7	-1.4269933
54	0x3eb1787e	0.3466224
55	0xbf88a832	-1.0676329
56	0xbff9d93a	-1.9519417
57	0xc00daaf8	-2.21356
58	0x3fbb3323	1.4624981
59	0xbfdf5e74	-1.74507
60	0xbf46cada	-0.77653277
61	0xbf84247d	-1.0323635
62	0x3f781062	0.969
63	0x404eb194	3.2295885
64	0xc05983a8	-3.3986607
65	0xbfdd8212	-1.7305319
66	0xbfc932a0	-1.5718575
67	0x3f96175c	1.1725879
68	0xbfa7eeea	-1.3119786
69	0xc03eb86c	-2.9800062
70	0x3fff0d13	1.9925865
71	0xbfb47e2d	-1.4101006
72	0x403cd1af	2.950298
73	0xc04ba641	-3.1820223
74	0xbf8b9262	-1.0904047
75	0xc0463b06	-3.0973525
76	0xbf478304	-0.7793429
77	0x401d01bc	2.4532309
78	0xc035c75b	-2.8402927
79	0x3ff7043f	1.9298171
80	0x3fe1be99	1.7636291
81	0xc02204c5	-2.531541
82	0x3fcd092b	1.6018423
83	0xbfbff632	-1.4997008
84	0xc002c172	-2.043057
85	0x3f151051	0.5822802
86	0x3f94cc30	1.1624813
87	0x3fdc252c	1.7198844
88	0xc034f1e0	-2.8272629
89	0x3fef37e9	1.8688937
90	0x403eb71e	2.9799266
91	0xbf031eaf	-0.51218694
92	0xc0305be1	-2.7556078
93	0x404ada3a	3.1695695
94	0x3daf6de7	0.08565884
95	0x401eab6f	2.4792135
96	0x3faf99ff	1.3718871
97	0xbff28c95	-1.8949152
98	0xc00d2ba6	-2.205789
99	0xc0181e08	-2.376833
100	0xbfbb2392	-1.462023
101	0x4007bb10	2.1207924
102	0xc0822726	-4.067279
103	0xc0107222	-2.256966
104	0x402ffe84	2.7499094
105	0x3fc52ebb	1.5404886
106	0x3f4f2293	0.8091213
107	0x40106d5b	2.2566745
108	0xc02718cc	-2.6108885
109	0xbfa8b89c	-1.3181338
110	0x3fe24509	1.7677318
111	0x4042ded6	3.0448508
112	0x3ef5d716	0.4801566
113	0xc0258e03	-2.5867927
114	0x3f60c187	0.877953
115	0xc045e85f	-3.0923078
116	0xbf8a69cb	-1.0813535
117	0x3fcccedc	1.6000628
118	0xc037a08a	-2.8691735
119	0xc029196f	-2.6421773
120	0xc01ecca8	-2.4812412
121	0x3f64c740	0.8936653
122	0x3fd369eb	1.6516699
123	0xc0211d03	-2.5173957
124	0x3fba208c	1.4541183
125	0x3e9a07f2	0.30084187
126	0x404b45e7	3.1761415
127	0xbec6a872	-0.3880039
128	0xc0192b50	-2.3932686
129	0x3fce5ce2	1.6122096
130	0xbe6cd0ba	-0.23126498
131	0x3fd251ae	1.6431177
132	0xbfde7e2c	-1.7382255
133	0x3ff76645	1.9328085
134	0xc03cb8e6	-2.9487853
135	0xc047c54b	-3.1214168
136	0x3fb78762	1.433819
137	0x3e826b37	0.25472423
138	0x3fdd2044	1.7275472
139	0x3fa5c922	1.2952006
140	0xbd2b8413	-0.041874003
141	0xbf7fbf47	-0.9990124
142	0xc02900df	-2.6406782
143	0xbf8a12f4	-1.0787034
144	0xbfd4f293	-1.6636528
145	0x402e33c4	2.7219095
146	0xc056a966	-3.3540893
147	0xbf20cc40	-0.6281166
148	0xbfec6797	-1.8469113
149	0xbf0c5edc	-0.54832244
150	0xc0139784	-2.3061228
151	0xc018eb77	-2.3893716
152	0x407dd6d9	3.9662383
153	0xc04f40f2	-3.238339
154	0xc04b30d1	-3.1748545
155	0x3fdde66e	1.7335947
156	0xc040572c	-3.0053205
157	0xc01e0550	-2.4690742
158	0x3e055ee8	0.13024485
159	0xc0041df9	-2.0643294
160	0xc00605f1	-2.0941126
161	0xbd1f4cec	-0.038891718
162	0x3fd13dda	1.6347001
163	0xc020e4b9	-2.5139601
164	0xbfe48a8c	-1.7854781
165	0x3f6ecfc6	0.9328579
166	0xbf2c847c	-0.67389655
167	0x3f9db1bc	1.2319865
168	0xc001b27f	-2.0265195
169	0xc011f4ff	-2.2805784
170	0xbf81559c	-1.0104251
171	0x3f8a2c22	1.0794718
172	0x3dc4cee1	0.096097715
173	0x404ea999	3.2291014
174	0xbf837d12	-1.0272543
175	0xbf35320e	-0.707795
176	0x3f42c4e2	0.7608167
177	0x3eede7bf	0.4646587
178	0x3df1b1ae	0.11801468
179	0x3fe7c63c	1.8107371
180	0xbf6862b1	-0.9077559
181	0xc016a06c	-2.3535414
182	0x3f8737c5	1.0563895
183	0xbf8517a7	-1.0397843
184	0xbe574949	-0.2102405
185	0xc0711a03	-3.7672126
186	0xbf52a3bf	-0.82281107
187	0x3f98d6fd	1.1940609
188	0x3f8f6621	1.1203042
189	0x40504f07	3.2548234
190	0xbfa37ec8	-1.2773066
191	0xbecd557d	-0.40104285
192	0xc00b801a	-2.1796937
193	0xbfb8a725	-1.4426008
194	0x3e996dd1	0.29966596
195	0x3ff8b101	1.9429017
196	0xc01ed25d	-2.4815896
197	0x4015141e	2.3293529
198	0xc025a7f6	-2.5883765
199	0xbf709279	-0.939735
200	0x4031b65a	2.7767549
201	0x3ef3b564	0.47599328
202	0xbdeb891f	-0.11500763
203	0x3fe1b916	1.7634609
204	0xbfbeb50c	-1.4899001
205	0xbf0334e1	-0.5125256
206	0x3ff587c8	1.9182062
207	0x40095d21	2.1463091
208	0x4020919f	2.508888
209	0x40018344	2.0236368
210	0xc0109a70	-2.259426
211	0xc02cd56b	-2.700526
212	0xbf9745fe	-1.1818235
213	0xc04f7f05	-3.2421277
214	0xc0088636	-2.1331916
215	0xbf3dcd4a	-0.7414137
216	0x40388bc3	2.8835304
217	0x3f31cf5e	0.6945704
218	0xbf9de365	-1.233502
219	0x3f7d953b	0.9905583
220	0xbf521201	-0.8205872
221	0x3efd679e	0.49493116
222	0xbecff2dc	-0.40614974
223	0x3fc2fbb5	1.5233065
224	0xc080da55	-4.026652
225	0x40113099	2.2685912
226	0xc025db30	-2.5915031
227	0xbfc6e879	-1.5539695
228	0x402d75fb	2.710326
229	0xc02011b4	-2.5010805
230	0x3f0d1f0f	0.55125517
231	0xc00a1a6d	-2.157863
232	0x403eb8bf	2.980026
233	0x403063e6	2.7560973
234	0x402f3229	2.7374365
235	0xbfd44e36	-1.6586368
236	0xbfb0bc80	-1.3807526
237	0xbfbde14e	-1.4834383
238	0xc012319c	-2.284278
239	0x4038431d	2.8790963
240	0xbfb6888b	-1.426042
241	0x3fd15bae	1.6356103
242	0xbf2b45cd	-0.6690338
243	0x3f825f10	1.0185261
244	0xbfa8ebe7	-1.3196992
245	0xc022e63b	-2.5453022
246	0xc0533292	-3.2999616
247	0xbfb7361b	-1.4313387
248	0x40024909	2.0357077
249	0xbea9b55e	-0.33146185
250	0x400f2e9e	2.2372203
251	0xc0048561	-2.0706408
252	0x3fc239d6	1.51739
253	0xbd1455ea	-0.036214747
254	0xc01de585	-2.4671338
255	0x3e47cff0	0.19512916

fc.bias f4 [5439]
0	0x3f260a67	0.6485962
1	0xbf90e14e	-1.1318758
2	0xbf864ee6	-1.0492828
3	0xbeb2f9a7	-0.34956095
4	0xbedd414e	-0.43213886
5	0xbf3f0ace	-0.7462586
6	0xbf6cae8a	-0.92453825
7	0xbf1949e7	-0.5987839
8	0xbe2f5383	-0.17121701
9	0xc00b78fd	-2.1792595
10	0xbff39e88	-1.9032755
11	0xbfc009a4	-1.5002942
12	0xbf82a757	-1.0207318
13	0xbf8817a7	-1.0632218
14	0xbf26c7ab	-0.6514842
15	0xbf785d40	-0.9701729
16	0xbf5f118c	-0.8713615
17	0xbecdd6fb	-0.4020308
18	0xbee7a4e4	-0.4524299
19	0xbf1171ab	-0.5681407
20	0xbf4f6e50	-0.810277
21	0xc01bc77f	-2.4340513
22	0xbf0a5396	-0.5403379
23	0xbfe7e8f8	-1.8117971
24	0x3d3806fd	0.04492854
25	0xbef25534	-0.4733063
26	0xbf9b60bf	-1.21389
27	0xbfcc5a39	-1.5965034
28	0xbf94bea2	-1.1620677
29	0xbfb03c96	-1.3768489
30	0xbf59ca5c	-0.850744
31	0xbfbb4273	-1.4629654
32	0xbf5e81d4	-0.8691685
33	0xbf4cf5a3	-0.8006231
34	0xba30b45f	-0.00067407446
35	0xbf57a81f	-0.8424091
36	0xbfd19eab	-1.6376547
37	0xbeda8cd3	-0.42685565
38	0xbedd7082	-0.432499
39	0xbff29391	-1.8951284
40	0xbfa1bf9f	-1.2636603
41	0xbf609938	-0.87733793
42	0xbec7a124	-0.38990128
43	0xbf454be9	-0.77068955
44	0xbfb2e99e	-1.3977544
45	0xbff3f9b4	-1.9060578
46	0xbf6efadf	-0.9335155
47	0xbec2feca	-0.38085014
48	0xbeea39f1	-0.4574733
49	0x3f21cba0	0.6320133
50	0xbf9e432e	-1.2364252
51	0x3f291e12	0.6606151
52	0xbf708f95	-0.9396909
53	0xc005fc3d	-2.0935204
54	0xbf04501c	-0.5168474
55	0xbfb10fc3	-1.3832935
56	0xbf893799	-1.0720092
57	0xbea406d7	-0.32036468
58	0x3f12abe4	0.57293534
59	0xbefc6bb9	-0.49300936
60	0xbf16078f	-0.58605283
61	0xbfd2f9ac	-1.6482444
62	0xbf74ddcc	-0.95650935
63	0xbf48d7a2	-0.7845403
64	0x3eb4bbce	0.35299534
65	0xbf2c8145	-0.6738475
66	0xbfef67ea	-1.8703587
67	0xbfa122a5	-1.2588698
68	0xbe4bb8fa	-0.19894782
69	0xbf708edf	-0.93968004
70	0xbeef8346	-0.4677984
71	0xbe2f92f7	-0.17145906
72	0xbee56135	-0.44800726
73	0xbf8878a4	-1.0661817
74	0xc00e193c	-2.2202902
75	0xbf23f8ad	-0.64051324
76	0xbf3ebf35	-0.7451051
77	0xbf8358f8	-1.0261526
78	0xbfcb7c34	-1.5897279
79	0xbec391a4	-0.38197052
80	0xbf295040	-0.66138077
81	0x3f28a72c	0.65880084
82	0xbf67bdc7	-0.9052395
83	0xbf56b8ec	-0.8387592
84	0xbfc68f7f	-1.5512542
85	0xbe932d0a	-0.287453
86	0xbfa3a604	-1.2785039
87	0xc053dab0	-3.3102226
88	0xbf823fcc	-1.0175719
89	0x3f22bf0c	0.63572764
90	0x3f383310	0.71952915
91	0x3a6d62b1	0.00090555387
92	0xbedc5fc0	-0.430418
93	0xbebb6f70	-0.36608458
94	0xbfd990d4	-1.6997323
95	0xbfc29070	-1.5200329
96	0xbfe7218e	-1.8057115
97	0xbda1e0d0	-0.07904208
98	0xbf28bdfb	-0.6591489
99	0x3da924d0	0.082589746
100	0xbfec51fe	-1.8462522
101	0x3e53c244	0.20679575
102	0xbfbd8706	-1.4806831
103	0x3e4cb4fd	0.19990917
104	0xbf2f93f8	-0.6858516
105	0xbfe65215	-1.79938
106	0x3f3be49d	0.7339571
107	0xbf777987	-0.9666981
108	0x3f3f72a6	0.74784315
109	0xbf32ed89	-0.698937
110	0xbf940df5	-1.1566759
111	0xbf5d87ea	-0.86535513
112	0xbf33d245	-0.7024272
113	0xbd884130	-0.066530585
114	0xbe76653b	-0.24062054
115	0xbfa936eb	-1.3219885
116	0xbf1f2f94	-0.62181973
117	0xbf1bc590	-0.6084833
118	0xbd3c9942	-0.046044596
119	0xbfdc155f	-1.7194022
120	0xbf1a1967	-0.6019501
121	0xbed69fbd	-0.41918746
122	0xbf563fbd	-0.83691007
123	0xbfa8eef3	-1.3197922
124	0x3f6375f2	0.88851845
125	0xbe9eacac	-0.30991113
126	0xbfb754c7	-1.4322747
127	0xbee7ab53	-0.45247898
128	0xbf901429	-1.1256152
129	0x3edaf818	0.42767406
130	0xbf1f8212	-0.62307847
131	0xbff89b4a	-1.942239
132	0xbe0866ff	-0.1332054
133	0xbe02c2a2	-0.12769559
134	0xc01ecdc7	-2.4813097
135	0xbf01807c	-0.50586677
136	0xbfd471de	-1.659725
137	0xbea43869	-0.32074288
138	0xbf4df29b	-0.8044831
139	0xbf842da3	-1.0326427
140	0xbe6e4f20	-0.23272371
141	0xc0579641	-3.3685458
142	0xbfc15c98	-1.5106382
143	0xbec35fc2	-0.38158995
144	0xbed8e97c	-0.42365634
145	0xbf8655da	-1.049495
146	0xbd066bbf	-0.0328176
147	0x3ec6ece4	0.38852608
148	0xbf16f8a7	-0.58973163
149	0xc0294be6	-2.6452575
150	0xbf4196e3	-0.7562086
151	0xbecc0d1c	-0.39853752
152	0x3f8242be	1.0176618
153	0xbf187b49	-0.5956312
154	0xbfdd9ca2	-1.7313426
155	0xbf81d9ff	-1.0144652
156	0xbfdcb5d1	-1.7242986
157	0xbf60c95d	-0.87807256
158	0xbf60e577	-0.87850136
159	0xbf0b6c15	-0.54461795
160	0xbdca71de	-0.09885
161	0xbf827bcc	-1.019403
162	0xbf891fe3	-1.0712856
163	0xbfb429f8	-1.4075308
164	0xbe81650c	-0.25272405
165	0x3ef87be8	0.48532033
166	0xc0216476	-2.5217566
167	0xbe3b1b04	-0.18272024
168	0xbeb65d83	-0.3561822
169	0xbf3a3062	-0.72730076
170	0xbf8c4f36	-1.0961673
171	0xbfeb8358	-1.8399458
172	0xbecc9f34	-0.39965212
173	0xbf0e9a3c	-0.5570409
174	0xbf1e958e	-0.6194695
175	0x3ecce3a9	0.4001744
176	0xbf551c28	-0.8324609
177	0xbfc8bac2	-1.5681994
178	0xbf222553	-0.633382
179	0x3ed06303	0.4070054
180	0xbfa5ab1f	-1.2942847
181	0xbe95b245	-0.2923757
182	0x3f93d351	1.1548864
183	0xbf4d756e	-0.8025731
184	0xbf9a03ee	-1.2032449
185	0xbf83f179	-1.0308067
186	0xbf1ae74c	-0.6050918
187	0x3fae7563	1.3629574
188	0xbf209c25	-0.6273826
189	0xbefffe76	-0.49998826
190	0xbe46ac68	-0.19401705
191	0xbf665cdf	-0.8998546
192	0xbf5662ab	-0.83744305
193	0xbf707737	-0.9393191
194	0x3eb457a5	0.35223117
195	0xc04e0fad	-3.2197068
196	0xbf1c215f	-0.6098842
197	0xbff29917	-1.8952969
198	0xbdd99ede	-0.10626005
199	0x3f41a7ab	0.75646466
200	0xbf31a688	-0.6939473
201	0xbf88716d	-1.0659615
202	0x3dbd17e2	0.09233071
203	0xbdcb1a0f	-0.0991708
204	0x3ec260a8	0.37964368
205	0x3f2d312b	0.6765315
206	0xbe9a05b9	-0.3008249
207	0xbfe5de87	-1.7958535
208	0xbfe5ed7b	-1.7963098
209	0xbf990dd9	-1.1957351
210	0xbfc04773	-1.5021805
211	0xbeea2065	-0.4572784
212	0xbf4a9607	-0.79135174
213	0x3e5e2358	0.2169317
214	0xbfed960e	-1.8561418
215	0xbf1d7b5e	-0.6151637
216	0xbd1adf18	-0.037810415
217	0xbfa3d66b	-1.279981
218	0xbeb41e6f	-0.3517947
219	0xbec442bb	-0.3833216
220	0xbf73f7c3	-0.9529993
221	0xbf205f0c	-0.6264503
222	0xbeeec6a1	-0.46635917
223	0xbf886734	-1.0656495
224	0xbfdb4517	-1.713046
225	0xbdac2580	-0.0840559
226	0xbffa3f73	-1.9550613
227	0xbfa0d9f9	-1.256652
228	0xbf26637e	-0.64995563
229	0x3f223a0d	0.6336983
230	0xbf2e954c	-0.6819656
231	0xbf8b61f7	-1.0889271
232	0xbf822289	-1.0166789
233	0xbf6c4683	-0.9229509
234	0xc022e2bf	-2.5450895
235	0xbfbebac7	-1.490075
236	0xbf9c4350	-1.2208042
237	0xbeea63e5	-0.45779338
238	0xbf9f9b93	-1.2469352
239	0xbf3d66e4	-0.73985124
240	0xbf55ba87	-0.83487743
241	0xbf4c4ba2	-0.79802907
242	0xbf66a25d	-0.90091497
243	0xbf83e213	-1.0303367
244	0xbf321333	-0.69560546
245	0xbf5b7719	-0.85728604
246	0x3eab3d74	0.33445323
247	0xbf279706	-0.6546482
248	0xbf0d8ab9	-0.552898
249	0xbf5388fe	-0.8263091
250	0xbf0ba0d3	-0.54542273
251	0xc002151d	-2.0325387
252	0xbf121eb2	-0.5707809
253	0x3ead1253	0.33803043
254	0xbfe89c4b	-1.8172697
255	0x3e6db980	0.23215294
