Experiment4/rnn_one_hot_weights.pth (torch, 721856 bytes, 6 tensors)

rnn.weight_ih_l0 f4 [16, 5439]
3.16151 -1.2407458 -0.06451422 -1.3166369 3.234513 -2.6279085 0.12793614 -0.5613418
-2.7489493 2.0258336 0.14819488 -0.23467095 1.1104755 -2.5255854 -3.3085742 -0.8747583
2.1206274 -0.1978009 -0.69129455 1.3229419 -1.1692885 -1.4180108 -1.0926659 2.463658
-1.3509573 3.5455887 0.4641339 -0.8247642 -2.1980872 1.5664423 0.31332624 -2.3811
2.3529408 -2.8424017 -1.6939291 -1.348468 1.1683975 0.33235508 -2.230681 -1.0486432
-0.091263995 1.1418552 -2.9824243 0.18606585 -0.38364074 -0.53913873 -0.3204567 3.6316357
-0.47465107 -2.970795 -0.9081532 -0.43905666 0.42273897 -2.7678869 0.12829566 1.4459352
-0.079215094 2.317649 1.1070553 -2.7250571 0.20259543 -0.8930747 -1.3983916 -2.1071074
-0.9425381 -2.6261382 3.4049323 -2.9015129 -0.50909275 -1.9945576 -0.5780098 -0.7734053
-1.3668457 0.042579185 -0.4654375 -1.455252 -1.0016364 -1.3868195 -2.5404954 2.226237
-1.5628197 -0.34122092 -2.5458984 4.099016 -2.893178 -1.8800926 -2.5389037 -2.8043027
-2.4283586 0.2433652 -0.67665946 -2.1798654 -0.09816024 -1.6484393 -0.33372906 -2.5984826
-2.4804044 -0.31254146 1.5955337 -1.0077064 -1.7889355 4.0256743 -1.7105265 -0.5200649
-1.26862 -1.1890261 -0.3726744 1.4563042 -0.4864347 -0.20700023 1.8718574 -1.5711175
-2.1883066 -2.7780068 -2.6596026 -1.206715 -0.53769463 -2.44034 0.30448034 -0.33040842
4.668334 -2.6626978 -0.2670162 3.2534375 -0.6293362 -2.1254416 3.067609 -1.6647753
-1.0499481 0.1490999 -1.7583042 -0.72740555 -1.2116958 -1.5008683 -0.6177044 -2.1773028
-0.15675823 -1.2886444 1.4486256 -1.9494017 -0.09255426 -1.503752 -2.4361236 2.2929108
0.62541217 -1.005992 -0.7016404 0.42225662 -3.3732202 -3.0738382 -1.0722675 -0.13945429
-2.562573 1.5794411 -0.9319609 0.9159926 -2.7406 1.4773135 1.3685247 1.4521447
1.8194624 0.76294297 -1.3708726 2.5983417 -0.75938535 -3.2551243 -0.5622586 -0.07377365
0.84915847 -2.1073594 1.8507646 -0.78352886 0.2144172 -2.4391 -0.4338544 0.21380362
-0.37704152 -2.085104 -0.07038103 0.6020129 0.55903524 0.88312495 -0.037410658 3.408887
0.03023832 -3.3165574 4.414467 -0.9831512 -0.12305574 -1.8968483 -0.118326835 -0.7802038
-1.9752029 -2.4532046 -1.7566472 -1.8965741 2.1218922 -2.0118046 -1.9117426 2.1387901
4.136233 0.11686006 -1.1137954 -2.5452719 -0.13781181 -0.7054646 2.3738236 0.035690665
-0.021763047 1.3771696 0.01419209 0.72153693 0.32908976 2.1596255 -0.035907093 -0.70637685
-1.4698228 -2.5258458 -0.31708926 -2.6767771 -0.16841206 -0.9439509 -0.49711552 0.10255036
-1.2246863 2.132707 -3.379828 0.2235536 -0.65812534 0.07232561 -0.43074426 -0.85309976
-0.38559482 -2.5848567 -2.599231 -0.8070957 -1.5869892 -0.14515533 1.6721283 0.3773526
-2.2360008 -2.811881 -1.9124616 -1.8607303 -0.21368518 -1.4998891 -2.2905943 2.6902053
-3.262157 1.1012164 0.31579584 -1.1963941 1.3914794 -2.1160903 1.1813138 -2.3424869
00000000: 2e56 4a40 c2d0 9ebf 0820 84bd 8f87 a8bf
00000010: 4302 4f40 a72f 28c0 b101 033e 19b4 0fbf
00000020: c9ee 2fc0 42a7 0140 66c0 173e 954d 70be
00000030: 1024 8e3f 31a3 21c0 aebf 53c0 29f0 5fbf
00000040: 5cb8 0740 528c 4abe aef8 30bf 2956 a93f
00000050: 3fab 95bf 6181 b5bf 7adc 8bbf 93ac 1d40
00000060: 2bec acbf edea 6240 f5a2 ed3e bf23 53bf
00000070: 76ad 0cc0 2e81 c83f 4c6c a03e f163 18c0
00000080: 9596 1640 e9e9 35c0 abd2 d8bf 999a acbf
00000090: 0d8e 953f 722a aa3e 7ac3 0ec0 f139 86bf
000000a0: 9ee8 babd 5028 923f 0ae0 3ec0 0c88 3e3e
000000b0: 8f6c c4be ff04 0abf e712 a4be b86c 6840
000000c0: 7705 f3be 8121 3ec0 ba7c 68bf 09cc e0be
000000d0: 3e71 d83e 0f25 31c0 f05f 033e 6814 b93f
000000e0: 863b a2bd 5c54 1440 fdb3 8d3f 5667 2ec0
000000f0: 2d75 4f3e 8ba0 64bf 7ffe b2bf d9da 06c0
00000100: 2d4a 71bf a612 28c0 69ea 5940 63b2 39c0
00000110: e753 02bf aa4d ffbf 73f8 13bf e4fd 45bf
00000120: cdf4 aebf 8367 2e3d d34d eebe b345 babf
00000130: 9f35 80bf 4d83 b1bf 7a97 22c0 ab7a 0e40
00000140: 7a0a c8bf 82b4 aebe 00f0 22c0 242b 8340
00000150: d429 39c0 e0a6 f0bf 667d 22c0 b279 33c0
00000160: 3a6a 1bc0 ba34 793e 8e39 2dbf ea82 0bc0
00000170: 3c08 c9bd 0f00 d3bf 89de aabe 8a4d 26c0
00000180: f2be 1ec0 6f05 a0be 733a cc3f 86fc 80bf
00000190: d7fb e4bf 53d2 8040 88f2 dabf f922 05bf
000001a0: 2462 a2bf 0232 98bf 2ecf bebe 2d68 ba3f
000001b0: f80d f9be def7 53be 0699 ef3f 611a c9bf
000001c0: 370d 0cc0 ddca 31c0 ee36 2ac0 a375 9abf
000001d0: 5ba6 09bf 882e 1cc0 d9e4 9b3e 4b2b a9be
000001e0: fe62 9540 a469 2ac0 59b6 88be 5238 5040
000001f0: 2d1c 21bf 3c07 08c0 b553 4440 5b17 d5bf
00000200: b364 86bf a5ad 183e 1d10 e1bf 4037 3abf
00000210: d918 9bbf 741c c0bf e021 1ebf ee58 0bc0
00000220: 3b85 20be 4df2 a4bf 906c b93f ff85 f9bf
00000230: 168d bdbd f27a c0bf 73e9 1bc0 0dbf 1240
00000240: 031b 203f 59c4 80bf b59e 33bf 0532 d83e
00000250: d7e2 57c0 c4b9 44c0 1040 89bf 1bcd 0ebe
00000260: 3201 24c0 202b ca3f fd94 6ebf 7e7e 6a3f
00000270: fe65 2fc0 9c18 bd3f d12b af3f e1df b93f
00000280: 25e4 e83f 3b50 433f c178 afbf 3b4b 2640
00000290: 1467 42bf f553 50c0 2ef0 0fbf a416 97bd
000002a0: 7362 593f fade 06c0 dbe5 ec3f 5995 48bf
000002b0: 2f90 5b3e 371a 1cc0 2a22 debe 56ef 5a3e
000002c0: 960b c1be 5872 05c0 ee23 90bd 841d 1a3f
000002d0: ef1c 0f3f 7a14 623f eb3b 19bd 342b 5a40
000002e0: 5ab6 f73c 7a42 54c0 5043 8d40 ccaf 7bbf
000002f0: a604 fcbd edcb f2bf 5755 f2bd 70bb 47bf
00000300: 73d3 fcbf 4e01 1dc0 d1d9 e0bf f1c2 f2bf
00000310: 15cd 0740 68c1 00c0 fbb3 f4bf f0e1 0840
00000320: 055c 8440 5454 ef3d d990 8ebf bce5 22c0
00000330: 8a1e 0dbe 5499 34bf baec 1740 6030 123d
00000340: 6b48 b2bc 1847 b03f f185 683c a5b6 383f
00000350: 747e a83e 4e37 0a40 5113 13bd 1dd5 34bf
00000360: 2723 bcbf 75a7 21c0 8659 a2be 5150 2bc0
00000370: 3674 2cbe c4a6 71bf ed85 febe ec05 d23d
00000380: 85c2 9cbf 467e 0840 1a4f 58c0 3ceb 643e
00000390: e77a 28bf 731f 943d 838a dcbe bf64 5abf
000003a0: af6c c5be 4b6e 25c0 cd59 26c0 d39d 4ebf
000003b0: 7622 cbbf 99a3 14be 4d08 d63f 5c34 c13e
000003c0: a31a 0fc0 dcf5 33c0 8bcb f4bf 692c eebf
000003d0: 4ad0 5abe 5efc bfbf 1999 12c0 532c 2c40
000003e0: 2ec7 50c0 a9f4 8c3f feaf a13e 7123 99bf
000003f0: ff1b b23f 066e 07c0 4a35 973f 4eeb 15c0

rnn.weight_hh_l0 f4 [16, 16]
0.44238073 0.87602437 -0.25336927 0.020747853 -1.5231429 1.5288712 -0.10941166 -1.256312
0.63191235 1.1280391 -0.58672565 -1.8535365 -0.32442355 -0.69870836 -0.46579814 0.5767116
0.62540984 1.0265006 -1.9677421 -0.7883443 -1.6548225 -0.52854747 -1.1449537 -0.705511
-0.5823096 0.20224759 0.9331548 -1.1394264 -0.76551133 0.07636766 -2.8661606 0.4207375
0.57958657 -0.1502861 0.62546736 -0.867749 -0.82570064 0.94818175 0.7482558 -0.55049264
0.941312 -0.21398553 0.86614776 -0.012458748 1.0849558 1.2860293 0.86590064 -1.2460282
1.4530238 -0.027801307 0.50700533 -0.9332112 -1.3590766 1.6656299 -0.71201575 -0.8956186
1.2020398 0.114108674 -0.3981463 1.0424259 1.104043 0.042952906 -0.5746106 -0.4229007
0.37560165 0.49151975 -1.8910403 -0.3208843 0.094418675 1.3967341 0.37380376 1.2195152
0.6714101 1.8227911 -2.919733 0.80388135 -0.9979815 -0.10716658 -0.6116636 0.1192858
0.053248405 1.954308 0.14915743 0.37666133 0.81186754 -0.104865916 -0.7070421 0.6524534
-0.12973051 1.6387274 -2.593266 -1.5179043 -1.0540814 0.97612387 -2.6886675 -0.31165746
1.139502 -0.21620588 -1.1298747 -0.036408175 1.8321483 1.0798275 1.2865405 -0.9145491
-0.052088313 -0.020347415 1.2108743 0.5210949 -1.0706153 -0.43329126 2.086478 0.21236011
1.0760782 1.1753485 0.47322127 -0.13924198 -1.1948162 -1.6191467 -0.047372323 0.03762899
0.8915081 -0.25080293 -0.32362974 -1.6789045 0.78550655 0.65437156 1.6935295 0.4728928
-0.5987414 0.7451366 0.37784684 -0.9350398 -0.11296385 0.09940156 -2.1288028 -0.53470314
1.1663032 0.33043057 -1.4158419 0.310167 -1.8054016 1.4434551 -2.0661182 -0.48069504
-0.723942 0.62143785 -0.25692317 -0.026725374 -0.25531182 2.5680711 -0.026129141 0.67389035
1.3657818 1.8867629 0.83497113 -0.64246684 -1.1141489 0.9221183 -2.2714586 -0.9887248
-0.04106983 0.3895664 -1.0668368 -0.29392746 -1.4768139 1.1927407 -1.4161732 0.7678104
1.6006408 1.8930523 -1.7261546 -0.44304743 -0.6536772 1.4808993 0.9541118 -0.8005852
-0.1469563 -0.64314955 1.2152113 -0.07068733 0.673039 -0.5601743 0.96196276 0.6876969
-2.2676525 -0.26696652 2.093767 1.510832 0.7900836 -0.029356273 1.3573018 1.1348599
-2.026064 -1.3313439 0.32390937 1.1135486 0.45523614 -0.6888457 -1.2639552 -1.4567007
-1.4819807 -0.91811603 1.0601333 0.53594494 0.8484203 0.764503 2.2745392 -0.16780199
1.7869191 0.9652692 -0.9940232 -0.73000646 0.8354356 -1.0117164 0.3790483 -1.1587118
1.2124207 0.7403291 -1.6124666 0.48465994 1.1250739 0.4686002 -0.46934646 0.16812705
-1.2732102 0.9820018 1.1045624 -0.39460716 1.8011217 -0.9802818 1.8717228 -0.7669309
-1.436484 -1.7896166 1.1425096 2.088445 0.85547936 -1.1479869 2.1158745 -1.3767915
-1.727889 0.68858904 -0.2870109 -0.49719942 -0.77400464 1.3936127 -0.8762524 0.87166315
0.9168876 -1.8463899 1.8811982 -0.751244 1.3595897 -0.12002679 0.82495505 1.1650288
00000000: ba7f e23e 2243 603f 9eb9 81be 67f7 a93c
00000010: 59f6 c2bf 0db2 c33f 3813 e0bd d5ce a0bf
00000020: 02c5 213f 9663 903f a733 16bf af40 edbf
00000030: d81a a6be 8dde 32bf 187d eebe 5fa3 133f
00000040: dc1a 203f 5f64 833f f9de fbbf efd0 49bf
00000050: 39d1 d3bf e34e 07bf d88d 92bf 5e9c 34bf
00000060: 3e12 15bf fe19 4f3e 3ce3 6e3f b9d8 91bf
00000070: 8df8 43bf a666 9c3d 2d6f 37c0 e86a d73e
00000080: c95f 143f 99e4 19be a11e 203f cc24 5ebf
00000090: 1e61 53bf 0abc 723f b18d 3f3f 16ed 0cbf
000000a0: d3f9 703f 061f 5bbe dcbb 5d3f c71f 4cbc
000000b0: d5df 8a3f 9c9c a43f aaab 5d3f da7d 9fbf
000000c0: affc b93f 91bf e3bc 1acb 013f eee6 6ebf
000000d0: 39f6 adbf 5c33 d53f aa46 36bf 4347 65bf
000000e0: 71dc 993f cfb1 e93d d5d9 cbbe 366e 853f
000000f0: 4851 8d3f 63ef 2f3d ae19 13bf 7186 d8be
00000100: dc4e c03e 7aa8 fb3e 9c0d f2bf f24a a4be
00000110: 945e c13d 2fc8 b23f 3563 bf3e 1319 9c3f
00000120: 88e1 2b3f 3851 e93f e8dc 3ac0 2bcb 4d3f
00000130: b77b 7fbf 277a dbbd fc95 1cbf 1d4c f43d
00000140: 001b 5a3d c426 fa3f babc 183e c1d9 c03e
00000150: 8dd6 4f3f f1c3 d6bd b600 35bf 3007 273f
00000160: 13d8 04be d2c1 d13f 12f8 25c0 b04a c2bf
00000170: 24ec 86bf 41e3 793f 2113 2cc0 9191 9fbe
00000180: 34db 913f 1365 5dbe bc9f 90bf bd20 15bd
00000190: d683 ea3f ca37 8a3f 5cad a43f e41f 6abf
000001a0: 8e5a 55bd 9faf a6bc eefd 9a3f 7a66 053f
000001b0: ec09 89bf 5ad8 ddbe db88 0540 ee74 593e
000001c0: eebc 893f d271 963f 0f4a f23e 7395 0ebe
000001d0: bdef 98bf 3340 cfbf 7b09 42bd db20 1a3d
000001e0: e039 643f 3e69 80be ccb2 a5be 58e6 d6bf
000001f0: f516 493f e584 273f 93c5 d83f 011f f23e
00000200: 1e47 19bf 46c1 3e3f 2475 c13e c55e 6fbf
00000210: 9759 e7bd 0c93 cb3d 4e3e 08c0 4ee2 08bf
00000220: 6c49 953f 322e a93e 4f3a b5bf 36ce 9e3e
00000230: 6617 e7bf 23c3 b83f 483b 04c0 a91d f6be
00000240: 4354 39bf 8d16 1f3f 6f8b 83be 2cef dabc
00000250: 3bb8 82be 475b 2440 c80c d6bc 1484 2c3f
00000260: f0d1 ae3f 7281 f13f abc0 553f b578 24bf
00000270: 6e9c 8ebf f20f 6c3f 945f 11c0 121d 7dbf
00000280: d738 28bd 3f75 c73e 1c8e 88bf a97d 96be
00000290: 3d08 bdbf baab 983f 2a45 b5bf 398f 443f
000002a0: cce1 cc3f 8a4f f23f a2f2 dcbf 1dd7 e2be
000002b0: 6457 27bf 1c8e bd3f ac40 743f 27f3 4cbf
000002c0: b67b 16be 73a5 24bf 0b8c 9b3f 85c4 90bd
000002d0: 494c 2c3f 9567 0fbf 3143 763f e70c 303f
000002e0: 3821 11c0 d6af 88be 4700 0640 f162 c13f
000002f0: eb42 4a3f 917c f0bc 11bc ad3f 1743 913f
00000300: 08ab 01c0 7a69 aabf 73d7 a53e c388 8e3f
00000310: b614 e93e 3158 30bf 49c9 a1bf 2b75 babf
00000320: 8bb1 bdbf a709 6bbf 73b2 873f b033 093f
00000330: 1332 593f 78b6 433f 0d92 1140 49d4 2bbe
00000340: c4b9 e43f e21b 773f 4e78 7ebf b4e1 3abf
00000350: 1cdf 553f ec7f 81bf 9e12 c23e ab50 94bf
00000360: 9a30 9b3f 3586 3d3f 4e65 cebf 5925 f83e
00000370: 6c02 903f 5eec ef3e 2e4e f0be 7f29 2c3e
00000380: 8df8 a2bf 7864 7b3f 4d62 8d3f f309 cabe
00000390: 288b e63f bff3 7abf 9d94 ef3f 9555 44bf
000003a0: b5de b7bf 2812 e5bf c13d 923f 15a9 0540
000003b0: b200 5b3f 3cf1 92bf 7d6a 0740 b43a b0bf
000003c0: 772b ddbf 5f47 303f 18f3 92be ec90 febe
000003d0: 2b25 46bf e761 b23f 1452 60bf 5125 5f3f
000003e0: 25b9 6a3f 8156 ecbf 1acb f03f 8751 40bf
000003f0: 0907 ae3f 9bd0 f5bd 4130 533f aa1f 953f

rnn.bias_ih_l0 f4 [16]
0.20086518 -0.120358095 0.3301223 0.21160325 0.73887724 0.11388755 -0.14343262 0.16300672
0.081470855 -0.26128367 0.51661754 -0.17562999 0.12030784 -0.13341886 0.086617194 0.1618702
00000000: 9aaf 4d3e 4e7e f6bd ca05 a93e 86ae 583e
00000010: 0f27 3d3f e03d e93d 00e0 12be 3ceb 263e
00000020: 31da a63d f9c6 85be 0c41 043f 59d8 33be
00000030: f563 f63d f49e 08be 5b64 b13d 4dc1 253e

rnn.bias_hh_l0 f4 [16]
0.102977425 -0.106395066 -0.03687545 0.077493995 0.5090606 -0.20084035 0.025650231 -0.10212937
-0.12813917 -0.07409798 0.7927812 -0.0020417438 -0.11208058 0.15269743 -0.10456788 -0.05042132
00000000: d4e5 d23d a8e5 d9bd b60a 17bd 2cb5 9e3d
00000010: cc51 023f 18a9 4dbe 6f20 d23c 3429 d1bd
00000020: ea36 03be afc0 97bd b5f3 4a3f c7ce 05bb
00000030: 818a e5bd b75c 1c3e af27 d6bd 9686 4ebd

fc.weight f4 [5439, 16]
-0.6477681 -1.8600079 1.6847636 -0.36513478 -2.1786525 -1.0056692 -0.7363704 0.63176876
-0.2734361 -1.928718 -2.3156962 0.69235337 1.2661872 0.40190068 1.2800229 -0.54452276
-0.24350497 2.1376266 -2.6680033 0.29742262 -0.34968227 -0.4152756 -3.8824947 3.1818745
2.4131217 -0.43711442 -1.3296845 -0.25750598 -3.2353392 -0.6994879 0.5909227 0.13949233
1.1848952 2.0516934 0.8657699 1.4780822 1.7559023 1.3040249 1.9513526 2.5956314
2.8298705 -1.2762624 -0.23827946 1.2898507 1.008681 -2.1927266 -1.4356997 2.1113403
1.2092353 0.85987717 -0.3160121 1.9808714 1.8980734 0.5566975 -1.0422484 -1.8345566
-0.3182505 0.2679465 1.5584869 0.4789742 -1.9828438 2.0152326 0.34005418 -1.963054
2.3623655 -2.023954 0.54759467 2.8108692 0.49509034 2.2261052 -1.8417987 -2.176114
2.9687636 3.3880622 -1.1481619 0.54899085 -2.5920978 -1.7851361 -2.0203521 -2.6829464
2.6074977 -1.4901358 -1.8090776 2.95628 -1.2855315 0.7008653 -3.3417199 0.6654646
-0.35681397 4.079353 1.0050623 0.76814145 0.42260265 -1.4468018 -1.4538976 1.1185948
-0.9807611 -0.6884599 2.4049838 -0.99638015 1.853998 0.0790595 0.8218377 -2.2098143
-0.077555135 -0.6978767 2.2870035 -2.883502 -2.7360034 -1.1843365 -3.4974267 -2.4223406
2.4157667 1.3347813 -3.065243 -1.257744 -0.79858625 -0.07500005 0.7390249 -0.38511264
0.09907863 0.009669708 -1.0482804 -2.616753 -0.78453326 2.56568 -0.23452175 -2.2227705
0.53756684 -0.5476286 0.81117284 1.3668288 3.2779841 1.2687653 2.5580027 -3.2807338
2.135405 -0.22757523 -1.2658267 1.2673206 1.1205055 -1.3287505 0.17266601 1.7262715
-1.8407446 3.7633667 3.5905604 0.103995696 -1.3793665 -1.1978744 -1.9403088 -0.61869174
2.665564 1.373916 -1.8712668 -2.5972018 -0.9386928 4.266701 0.82285124 2.16857
-0.8306722 -0.03657217 2.4872022 -1.4748286 -1.1031681 -0.08724229 0.8701658 -3.2069297
0.41066366 -0.48859856 -0.3729423 -2.2954025 0.2635735 2.686097 -3.4495826 0.36522606
-0.47586375 0.10483799 2.2498388 -1.5957484 -0.6857965 -0.47301295 0.40639153 3.6878898
3.2254128 -0.44350243 -0.7746756 0.7459132 -2.1073701 1.6123085 -0.08149151 0.30260065
3.3476574 1.2829154 -1.167408 -1.4206263 -0.8912245 -0.6212125 -2.1531947 2.1819563
2.7236977 -0.80625427 -1.0153855 1.0403516 -1.7684426 1.2813003 0.38591394 1.0808672
0.038248412 2.2668726 1.5682156 1.2765502 -0.5335222 -0.7049168 -2.272736 -3.5972428
-0.8304971 2.6650743 0.7092024 0.56775886 -0.06269961 2.4507284 0.24864197 -3.2218952
-1.1510236 2.8811913 2.2445154 2.2074056 0.577502 -0.23285891 1.4716464 1.6241995
2.6262295 -0.7446304 -0.46285087 -2.4838216 -2.5407276 1.4119979 -3.5898066 1.5715774
-1.7132779 2.4073896 -2.4974687 2.4966218 -1.5406888 1.047444 -2.294704 -3.117669
0.3754786 1.1488951 3.1075525 -1.8313608 0.37467074 -1.0965531 -1.3210298 -2.9136765
00000000: 21d4 25bf bd14 eebf 55a6 d73f f2f2 babe
00000010: 0b6f 0bc0 c5b9 80bf c582 3cbf 99bb 213f
00000020: d1ff 8bbe 3be0 f6bf 5e34 14c0 123e 313f
00000030: 6c12 a23f edc5 cd3e cad7 a33f d865 0bbf
00000040: 5e59 79be e0ce 0840 91c0 2ac0 c747 983e
00000050: 8e09 b3be 019f d4be cb7a 78c0 d5a3 4b40
00000060: 9670 1a40 76cd dfbe 1a33 aabf d3d7 83be
00000070: cc0f 4fc0 a411 33bf b646 173f 14d7 0e3e
00000080: a5aa 973f f24e 0340 19a3 5d3f cc31 bd3f
00000090: 68c1 e03f 4aea a63f ecc5 f93f d31e 2640
000000a0: 991c 3540 915c a3bf 88ff 73be d419 a53f
000000b0: 761c 813f a255 0cc0 02c5 b7bf 3320 0740
000000c0: 39c8 9a3f e920 5c3f 57cc a1be 328d fd3f
000000d0: 12f4 f23f ba83 0e3f 6568 85bf c0d2 eabf
000000e0: bbf1 a2be 4930 893e 807c c73f 1b3c f53e
000000f0: d3cd fdbf 92f9 0040 951b ae3e 5a45 fbbf
00000100: ff30 1740 7688 01c0 2a2f 0c3f 48e5 3340
00000110: 7b7c fd3e 8278 0e40 0fc0 ebbf 7445 0bc0
00000120: 3900 3e40 03d6 5840 f8f6 92bf aa8a 0c3f
00000130: eee4 25c0 577f e4bf 734d 01c0 65b5 2bc0
00000140: 3ee1 2640 c5bc bebf db8f e7bf b133 3d40
00000150: 4c8c a4bf e96b 333f bdde 55c0 e35b 2a3f
00000160: 52b0 b6be 0f8a 8240 e2a5 803f eba4 443f
00000170: 605f d83e cd30 b9bf 5119 babf 1d2e 8f3f
00000180: 2913 7bbf e83e 30bf 41eb 1940 c512 7fbf
00000190: ce4f ed3f f2e9 a13d f563 523f 996d 0dc0
000001a0: 3ad5 9ebd 0ca8 32bf 445e 1240 4c8b 38c0
000001b0: ae1a 2fc0 5798 97bf d7d5 5fc0 a107 1bc0
000001c0: ec9b 1a40 1dda aa3f f12c 44c0 c1fd a0bf
000001d0: 2670 4cbf a099 99bd bc30 3d3f 7c2d c5be
000001e0: bde9 ca3d b26d 1e3c 0d2e 86bf e278 27c0
000001f0: 2cd7 48bf 1a34 2440 7826 70be df41 0ec0
00000200: fb9d 093f 6331 0cbf 06a9 4f3f 3ff4 ae3f
00000210: 7eca 5140 e766 a23f 51b6 2340 8bf7 51c0
00000220: 7aaa 0840 7b09 69be 9c06 a2bf 9037 a23f
00000230: b96c 8f3f 7f14 aabf 5ccf 303e 77f6 dc3f
00000240: 859d ebbf 00db 7040 becb 6540 b2fb d43d
00000250: 158f b0bf f353 99bf 0a5c f8bf 9562 1ebf
00000260: 9a98 2a40 7bdc af3f ac85 efbf 8e38 26c0
00000270: 2c4e 70bf d188 8840 61a6 523f dac9 0a40
00000280: efa6 54bf b3cc 15bd 522e 1f40 2fc7 bcbf
00000290: 9d34 8dbf 16ac b2bd 30c3 5e3f 563e 4dc0
000002a0: 8242 d23e 9729 fabe 4bf2 bebe e0e7 12c0
000002b0: 1bf3 863e 03e9 2b40 f6c5 5cc0 e9fe ba3e
000002c0: 6aa4 f3be 4db5 d63d 5cfd 0f40 7c41 ccbf
000002d0: 5c90 2fbf c12e f2be 8d12 d03e 6306 6c40
000002e0: 2a6d 4e40 c012 e3be 2451 46bf 2bf4 3e3f
000002f0: 27df 06c0 2060 ce3f 05e5 a6bd 79ee 9a3e
00000300: 0540 5640 9236 a43f a06d 95bf 15d7 b5bf
00000310: 4a27 64bf c807 1fbf f1cd 09c0 2ca5 0b40
00000320: 1051 2e40 ae66 4ebf 27f8 81bf 3e2a 853f
00000330: 545c e2bf a601 a43f 8396 c53e db59 8a3f
00000340: 5eaa 1c3d 7114 1140 4abb c83f ff65 a33f
00000350: e994 08bf 6d75 34bf 8274 11c0 3a39 66c0
00000360: 759b 54bf 9490 2a40 4a8e 353f a558 113f
00000370: a768 80bd bcd8 1c40 009c 7e3e 8833 4ec0
00000380: be54 93bf 7065 3840 24a6 0f40 2246 0d40
00000390: 2cd7 133f 9172 6ebe e95e bc3f c5e5 cf3f
000003a0: 2514 2840 19a0 3ebf cafa ecbe eff6 1ec0
000003b0: 489b 22c0 59bc b43f 64bf 65c0 7329 c93f
000003c0: b14c dbbf ac12 1a40 87d6 1fc0 a7c8 1f40
000003d0: 4a35 c5bf a512 863f 6edc 12c0 e487 47c0
000003e0: bb3e c03e ff0e 933f 24e2 4640 086a eabf
000003f0: d8d4 bf3e da5b 8cbf 8117 a9bf ad79 3ac0

fc.bias f4 [5439]
1.2123644 -1.9381166 -0.74276465 -0.39020896 -0.9658036 -1.3993311 -1.6591971 -0.5656711
0.28510657 -4.2395477 -2.0463061 -1.8259059 -1.8160933 -1.2188805 -0.9377272 -2.3510454
-2.8729796 1.12903 -0.10121781 -0.5189531 -0.85203815 -2.5757744 -1.2120852 -3.6424627
-1.2269968 -4.3433027 -1.0956818 -3.6770241 -3.2311049 -1.1951118 -0.5901963 -1.4374907
-2.1037264 -2.311615 -0.7193997 -0.8960769 -3.2168076 -1.1150383 -0.54342836 -1.9633106
-3.9602585 -1.2286772 -0.3849573 0.017809149 -1.2123344 -1.5703745 -1.2480364 -2.9509037
-0.91635025 -0.43689993 -1.4313399 -0.12727669 -1.1186308 -1.1823754 -0.09369805 -2.1542096
-3.1686883 -0.5161388 -1.845619 -0.24237147 -0.8716233 -1.5265827 -0.9811421 -0.6384649
1.0652313 -0.42486754 -1.4456402 -0.79674697 0.67466486 -1.8429358 1.8945414 -1.9456652
-1.0013796 -1.8640316 -1.9774456 -1.1413143 -0.9354888 -1.172375 -2.7292352 -0.25451005
-2.415135 1.5546466 -1.6304822 -1.3148603 -3.963332 -0.035516627 -2.0203912 -2.5523372
-4.688589 1.9899124 1.2023193 -0.73277485 -1.5331663 -0.23719752 -2.9234455 -3.0249374
-2.4205887 -0.2240851 0.2802438 0.3270398 -2.2800138 0.8179715 -2.238253 -0.36560047
-0.86208886 -2.8540697 1.324415 -0.039921425 1.0007414 -0.52196676 -0.44134423 -1.4469404
-1.0905396 -1.6252531 -0.71025246 -1.8583294 -1.1172314 -1.353782 1.8735718 -2.074654
-0.6098908 -1.2696432 -1.4516046 -2.7615616 0.6973617 -0.6950048 -0.7612182 -0.3183957
-1.6836683 0.97398347 -0.92465246 -3.0000863 -4.763928 -2.0880945 -2.908841 -1.2613525
-3.629647 -0.10773748 -1.7425458 -0.013321344 -0.75291735 -3.9616227 -4.5861106 -1.0186931
-1.4838877 -1.4851675 -0.5988057 0.8188757 -0.73612463 -4.6974998 -1.1609219 -0.5801493
-0.7298471 -1.2180822 -2.0898106 -2.6064591 -1.9507185 -1.2673969 -0.37894753 -0.0980595
-0.9817234 -0.49238852 -0.67478377 -3.6770284 -2.2850308 -0.43717888 -4.050707 -0.45834032
-1.5273602 -2.1363237 -1.3501256 -1.3956068 -1.9137981 -1.1905663 -0.47386777 1.0870875
-0.98223233 -3.9319904 -0.7895104 -1.4809511 -2.1746788 -0.5929352 -3.6252968 -1.40315
-0.78830016 -1.2328621 -1.5733213 1.5258102 -0.91883355 -1.8289292 -0.0058354004 -1.122389
-1.7729574 -1.7538737 -2.0238056 -3.5446963 -0.24526359 -1.4848188 -1.7820697 -0.20319821
-1.857757 -2.0371215 -1.2227229 -0.6506503 1.4294496 -0.029745705 -0.13260888 -0.5184979
-2.8280804 -1.5868375 -3.2198358 -2.6458986 -2.5757432 -1.4540834 -1.4861218 -0.73098356
-0.96579826 -1.1458852 -0.8970261 -0.73745507 -1.9269702 -1.0663016 -0.4648403 -2.6849942
-1.1444502 -0.16622354 -0.59599113 -1.283592 -0.9196183 0.44006535 -0.05283751 -1.7750229
-1.6276182 -0.3889713 -1.7565777 -3.5242991 -1.8388501 -1.3024704 -2.4038424 -2.1187177
-1.886151 -0.6839217 -0.4581447 -0.4743029 -0.9023332 -0.98494434 0.07468711 -1.4879332
-1.0101641 -1.1243296 -0.9427352 -2.9830945 -0.63224196 -1.3539861 -2.0274396 0.5069637
00000000: c22e 9b3f 3414 f8bf d325 3ebf 78c9 c7be
00000010: e83e 77bf 481d b3bf 9260 d4bf d2cf 10bf
00000020: 7df9 913e 60aa 87c0 aef6 02c0 49b7 e9bf
00000030: bf75 e8bf 4704 9cbf e40e 70bf 8777 16c0
00000040: e6de 37c0 0e84 903f 484b cfbd 1cda 04bf
00000050: 2c1f 5abf 7dd9 24c0 9c25 9bbf 1c1e 69c0
00000060: 3b0e 9dbf 56fc 8ac0 4d3f 8cbf 5d54 6bc0
00000070: 6cca 4ec0 6cf9 98bf 1b17 17bf b2ff b7bf
00000080: 74a3 06c0 80f1 13c0 942a 38bf 4c65 65bf
00000090: 2de0 4dc0 93b9 8ebf 1f1e 0bbf c34d fbbf
000000a0: e074 7dc0 4b45 9dbf 2019 c5be 7ee4 913c
000000b0: c62d 9bbf 0802 c9bf a8bf 9fbf 9bdb 3cc0
000000c0: ee95 6abf 59b1 dfbe 2536 b7bf d254 02be
000000d0: 4b2f 8fbf 1458 97bf c3e4 bfbd 92de 09c0
000000e0: cacb 4ac0 ac21 04bf 3e3d ecbf 3a30 78be
000000f0: b422 5fbf 1067 c3bf 212c 7bbf 7072 23bf
00000100: 8059 883f 3d88 d9be bd0a b9bf 9cf7 4bbf
00000110: d6b6 2c3f 52e5 ebbf 5580 f23f 8f0b f9bf
00000120: 352d 80bf 9698 eebf f01c fdbf 9616 92bf
00000130: 327c 6fbf 6210 96bf caab 2ec0 244f 82be
00000140: 9291 1ac0 a9fe c63f a4b3 d0bf 584d a8bf
00000150: 3ba7 7dc0 e279 11bd 174e 01c0 7e59 23c0
00000160: ec08 96c0 73b5 fe3f 99e5 993f 2297 3bbf
00000170: cb3e c4bf e8e3 72be bb19 3bc0 9398 41c0
00000180: edea 1ac0 9176 65be 1e7c 8f3e c371 a73e
00000190: bfeb 11c0 9566 513f 8a3f 0fc0 fc2f bbbe
000001a0: dbb1 5cbf 14a9 36c0 6e86 a93f a684 23bd
000001b0: 4b18 803f 9d9f 05bf dff7 e1be 5835 b9bf
000001c0: cd96 8bbf 4b08 d0bf 1bd3 35bf bddd edbf
000001d0: 7001 8fbf bb48 adbf 33d1 ef3f 22c7 04c0
000001e0: ce21 1cbf ab83 a2bf 2ece b9bf 6dbd 30c0
000001f0: 4c86 323f d6eb 31bf 32df 42bf c304 a3be
00000200: 7182 d7bf fb56 793f 06b6 6cbf 6a01 40c0
00000210: 1972 98c0 57a3 05c0 732a 3ac0 0074 a1bf
00000220: 234c 68c0 78a5 dcbd be0b dfbf c441 5abc
00000230: 31bf 40bf 3a8b 7dc0 6bc1 92c0 8964 82bf
00000240: 08f0 bdbf f819 bebf 554b 19bf d6a1 513f
00000250: aa72 3cbf eb51 96c0 1799 94bf aa84 14bf
00000260: 42d7 3abf 1eea 9bbf 75bf 05c0 3ad0 26c0
00000270: 25b1 f9bf 103a a2bf 6905 c2be 6bd3 c8bd
00000280: 3a52 7bbf 591a fcbe a1be 2cbf 6f54 6bc0
00000290: f23d 12c0 e9d5 dfbe 649f 81c0 95ab eabe
000002a0: 8a80 c3bf 87b9 08c0 ead0 acbf 3ea3 b2bf
000002b0: 56f7 f4bf 7a64 98bf cc9e f2be af25 8b3f
000002c0: 9473 7bbf bba5 7bc0 5b1d 4abf ce8f bdbf
000002d0: f02d 0bc0 9aca 17bf dd04 68c0 6b9a b3bf
000002e0: 0ace 49bf 6dce 9dbf 9862 c9bf c04d c33f
000002f0: ad38 6bbf 5a1a eabf e336 bfbb 71aa 8fbf
00000300: 45f0 e2bf ef7e e0bf 0886 01c0 4edc 62c0
00000310: 6126 7bbe 8b0e bebf dc1a e4bf 3113 50be
00000320: fbca edbf 3360 02c0 2f82 9cbf 0591 26bf
00000330: 34f8 b63f 44ad f3bc 9fca 07be 47bc 04bf
00000340: 45ff 34c0 7e1d cbbf ca11 4ec0 6756 29c0
00000350: fad8 24c0 681f babf 3d39 bebf bd21 3bbf
00000360: 8e3e 77bf 5eac 92bf 81a3 65bf dbc9 3cbf
00000370: f6a6 f6bf 927c 88bf 8cff edbe f2d6 2bc0
00000380: 587d 92bf 8136 2abe e092 18bf be4c a4bf
00000390: 1b6c 6bbf 3f50 e13e 256c 58bd f333 e3bf
000003a0: cb55 d0bf 3f27 c7be 8ad7 e0bf 1e8e 61c0
000003b0: 715f ebbf 5ab7 a6bf 8ed8 19c0 1299 07c0
000003c0: 656d f1bf 7e15 2fbf f191 eabe d4d7 f2be
000003d0: 4fff 66bf 5025 7cbf 8ef5 983d 9874 bebf
000003e0: 0f4d 81bf 08ea 8fbf 1857 71bf 05eb 3ec0
000003f0: 9cda 21bf 6b4f adbf 92c1 01c0 5fc8 013f
