Experiment4/rnn_embeddings_weights.pth (torch, 723241 bytes, 7 tensors)

embedding.weight f4 [5439, 16]
00000000: 980a 3b40 4594 1fbf 73a6 0cbf 968e fdbf
00000010: d9d3 a5be 8f22 be3e 3d57 fc3f 6bb3 663f
00000020: 6b06 a9bf cc6a 6c3f 0a25 27bf 41ef 4c3f
00000030: cce4 1940 92c2 8bbf 040a fbbf f609 323f
00000040: 513f e7be ba57 0240 09d9 a03f f2dd db3d
00000050: 4fe1 95bb e683 11bf fb62 67be 7829 4f3f
00000060: 6b5f 69bf a131 b73c b8bb ab3f f059 9abf
00000070: 7a87 4dc0 fcde 0fc0 1c08 ac3f 01c5 d43f
00000080: 837c 9dbf 2701 c63f 04c5 a0bf 685d 043f
00000090: f097 cb3e 3f24 ffbf 5e9a 8cbf 6311 45bf
000000a0: 7cd2 193f 90c1 e13e a403 07c0 abb1 0440
000000b0: 01a2 fabe 7b75 e53f 7ba9 87bf d49a 0d40
000000c0: 999e 913f a906 0040 3f18 87bf 6284 9dbe
000000d0: 818e 123f 62f2 203f 44f2 81bd 7288 7abf
000000e0: c116 fe3f 7f76 8fbe 497d 8c3f 9b10 6a40
000000f0: fb39 fcbe b3ad 363f bbe3 0cbf b809 88bf
00000100: d4e6 d13f 25f1 993f 9e0e 713f 81af c53f
00000110: f686 2740 a241 0f3f 151d 8f3e ed44 0f40
00000120: 9dfe 25c0 5965 f43f b0f9 cebf a6b3 8f3f
00000130: e140 09c0 cbdc edbf 7253 e23f 991d 1e40
00000140: 794c a23e 66bd f63f b176 4c3f e9e7 373f
00000150: 3e09 413f fb4a f63e 13d8 e9be b0d4 c1bf
00000160: 2d08 383f cfbb e93f 97f8 b63f 19e5 86bf
00000170: 10b7 f4be f17f 713f 1f27 d5bf f84c 49bd
00000180: 4016 ac3f b5ed 6ebf 3ac5 27bf 3f1b 923f
00000190: 5478 9c3c 6918 883f d067 493f 1d85 b9be
000001a0: e353 a3bd 73d2 89bf 843a 14bd 655d d2bd
000001b0: a471 adbe a254 74bf fcee d3be f986 af3f
000001c0: 0235 1ac0 4d2b c93f 89b6 553f 9a1e 543f
000001d0: b104 d0bf ef7f e2bf fda8 0ec0 0ae0 3b40
000001e0: 5637 74bf ae2f b73e 62fd dfbe 55f1 7d3f
000001f0: 25d1 d3be 5c4f 5d40 5a56 bebd 679d eabf
00000200: 7d62 543f 9961 e53f 4a79 5e3e 57b5 1a3f
00000210: 6b7e a73f 8a1d 453f 2c0b febf c027 66c0
00000220: edcb 503d 5d7f 8cbf 08a1 e53d f20f 53bf
00000230: ed16 4dc0 1089 86bf 1aec c23e 219b b4bd
00000240: bf35 e53f 1338 673f 7ad4 51c0 f274 71be
00000250: 7e65 19c0 cc63 74be a8b4 46bc d124 47bf
00000260: 3cc2 d6bf 1014 f4bc 8d94 b13f d239 86bf
00000270: d934 30bf 5191 2440 de2e d2bf 72d0 e5bd
00000280: fa5e 08be be96 5b3f d184 9d3f ba0a 9b3f
00000290: 0d12 bb3e a9ec 253e 5208 bebf 2159 893f
000002a0: e3c8 c53f 6b4b 28bf 6ec7 a1bf 916a b5bf
000002b0: 10ee 663e 0528 933f 63a5 8e3f ab28 0cc0
000002c0: 3e7d 53bf 3799 2bc0 e0f3 08bf 276a 913f
000002d0: 72a8 57bf a6d2 a93d 2ce6 21bf f196 1fc0
000002e0: 8f76 f83e b2b9 fe3f 591b 80bf ef90 673e
000002f0: 9391 98be fcdc a43f 5208 163f 6546 a83e
00000300: f9b5 02c0 8b29 4f3f 64ec bb3e 05bf 5bbf
00000310: a99a ebbf 2fac 973f c882 e2be db3a 043f
00000320: 4152 de3e ca7b 87bf 7141 763f 8280 2a3e
00000330: 0fa0 ffbf d431 4b3f 6364 c8bf 7662 49be
00000340: 5995 b2be 1e60 cd3f f223 41bf 5fd6 babf
00000350: 0899 99bf 9fe8 a6bf 9556 a5bf 66de a63f
00000360: aa95 8bbf c026 ac3f fb17 24bf 19eb 1340
00000370: 21d7 0bbf 18cd 2840 7544 aa3f 2774 ebbf
00000380: 3c3e 9f3f 4fb2 1d40 befe cfbf 82f6 e3bf
00000390: 70a0 ae3f 81ef 913d 566d d3bf 90b6 dc3f
000003a0: 411e d13f 582d 2ebf b782 6f3c 208b a53f
000003b0: e266 fc3b 1e58 af3f 789c bbbf 1743 693f
000003c0: a9b7 f23f 4134 533f d959 c6bf f4a1 823e
000003d0: eb38 e1bd 2395 493f 5dae 9e3f 4ee6 c6bf
000003e0: 6eab cdbf 87f5 713e 148d acbf 6aea 183e
000003f0: 26e7 a2be 95e6 c03e aca2 773f 7d7e 3f40
2.9225216 -0.62335616 -0.5494148 -1.9809139 -0.3238819 0.3713574 1.9714123 0.9011752
-1.3205084 0.9235046 -0.6529089 0.8005257 2.4045897 -1.0918753 -1.9612432 0.6954645
-0.45165494 2.0366044 1.2566234 0.10735692 -0.004573978 -0.56841886 -0.22596352 0.8092265
-0.9116122 0.022362532 1.3416662 -1.2058697 -3.2113938 -2.247985 1.3439975 1.6622621
-1.2303623 1.5469102 -1.2560124 0.51705027 0.39764357 -1.9932936 -1.0984609 -0.76979655
0.600868 0.4409299 -2.1095972 2.073344 -0.48951724 1.7926477 -1.0598596 2.212575
1.1376525 2.0004065 -1.0554274 -0.30765063 0.57248694 0.62869847 -0.063450366 -0.9786445
1.9850694 -0.28020093 1.0975734 3.6572635 -0.49262986 0.71358794 -0.5503499 -1.0627966
1.6398568 1.2026716 0.9416293 1.5444185 2.6176124 0.5595952 0.27951875 2.238582
-2.5936654 1.9093429 -1.6169949 1.1226699 -2.144585 -1.8583006 1.7681715 2.4705565
0.3169897 1.927655 0.7986861 0.7183824 0.7540473 0.4810408 -0.45672664 -1.5143032
0.71887475 1.826044 1.4294614 -1.0538665 -0.47795916 0.9433585 -1.6652564 -0.04914567
1.344429 -0.9333146 -0.6553532 1.1414565 0.019100346 1.0632449 0.7867403 -0.3623437
-0.079749845 -1.0767349 -0.036188617 -0.1027172 -0.33875763 -0.9544164 -0.41393268 1.3713065
-2.4094853 1.5716339 0.8348165 0.82859194 -1.6251432 -1.7695292 -2.2290642 2.9355493
-0.95396936 0.35778564 -0.43748003 0.9919637 -0.41370502 3.4579687 -0.09293814 -1.8329285
0.8296278 1.792041 0.21725956 0.6043295 1.3085455 0.769982 -1.9847159 -3.5961761
0.05097573 -1.0976368 0.11212355 -0.82446206 -3.2045243 -1.0510578 0.38070756 -0.08818651
1.7907027 0.9031994 -3.2785935 -0.23579767 -2.3968196 -0.23866194 -0.012128033 -0.7779055
-1.6778026 -0.029794723 1.3873459 -1.0486395 -0.6883064 2.5713694 -1.6420553 -0.112213984
-0.1331748 0.8577689 1.2306157 1.2112648 0.3653721 0.1620356 -1.4846289 1.0730325
1.5451931 -0.6574008 -1.2638986 -1.4173146 0.22551751 1.1496588 1.1144222 -2.1899822
-0.8261298 -2.6812265 -0.53497124 1.136052 -0.842414 0.08292131 -0.6324184 -2.4935877
0.48527953 1.990042 -1.0008346 0.22613882 -0.29798564 1.2879939 0.58606446 0.32866207
-2.0423567 0.80922765 0.3670379 -0.8583835 -1.8406574 1.1849421 -0.44240403 0.51652306
0.4342213 -1.0584652 0.96193606 0.16650584 -1.9970721 0.79372907 -1.5655636 -0.19666466
-0.34879568 1.6044958 -0.75445473 -1.4596671 -1.1999826 -1.303974 -1.2917048 1.3036621
-1.0905049 1.3449326 -0.6409909 2.3112242 -0.54625136 2.637518 1.3302141 -1.8394822
1.2440867 2.464008 -1.6249616 -1.7809603 1.3642712 0.0712576 -1.6517742 1.7243214
1.6337358 -0.6803794 0.014618567 1.2933083 0.0077026943 1.3698766 -1.4657125 0.91117996
1.8962299 0.8250161 -1.5496169 0.25514185 -0.10997184 0.7874319 1.2396961 -1.5539033
-1.6067941 0.23628817 -1.3480554 0.14933172 -0.31816977 0.3767592 0.9673259 2.9920952

rnn.weight_ih_l0 f4 [16, 16]
00000000: e272 56bf 5958 96bf a5ba 8cbf 384d 9ebf
00000010: a95a 5d3f d35b 053f 4d67 19bf a217 debf
00000020: 72af 30bf 2830 9abf ee79 0ebf 8df7 a63f
00000030: 6be3 1d3f 4b33 b63f 251a 8fbe 5e8f 91be
00000040: 216f 3bbf c9f6 03bf 1d62 363e c68e d73f
00000050: 8f0f 51bf 4e89 92bf 7865 dabc 05cf eebf
00000060: 3b34 2e3e b47a 21be 32e4 5f3f 3517 51bf
00000070: d1ab 48bf f232 a93f 0c35 c63d eb08 11bf
00000080: bbec c33f 294c be3f 9cc7 8e3f e0be d23e
00000090: 24da e4bf f448 873f 82f6 50bf 6732 f4bf
000000a0: 7786 80bf be42 9bbf aeda 47bd 5867 9c3f
000000b0: 7bcd f7bf c884 173f 146f 4dbf 548b 8a3f
000000c0: 1298 a1bf 177f aa3f b6e8 ed3b 38ae c6bb
000000d0: 1cea 863d 148a 36bf 166a aabf 8a4a 99bd
000000e0: bb70 b53f 4268 d6bf eb91 b73d 66df 883e
000000f0: a176 843f 4b91 2a3f 755b 633f 188f 0bbb
00000100: c954 993e f8d4 7ebe 85b8 6e3f 2a38 9a3f
00000110: 342f b13f dc27 133e 7971 86bf 7d6e 11bf
00000120: a3b3 953f 9841 0a3f a56b 463f d2c5 a13f
00000130: 7c3b 64bf b7cb 433f 2f66 873f 96a9 d6bf
00000140: 3886 e33f ec8c 7b3f b7a8 d1bf 7b58 cbbf
00000150: 09ff 87bf 05e3 c8bf 750d e9be 801c d5be
00000160: a0e1 34bf d84b 0b3f c2fa 0ebe be53 d1be
00000170: 3132 823f 4717 a83f c232 3bbf 222f 3fbf
00000180: ee56 34bf 3b5e 2040 ff49 2abf 84a7 26bf
00000190: 9815 c63f d2e1 e6be 9082 4a3b f10e 4dbe
000001a0: 9d2e 00bf 32fb eabe 2090 31bf 26a7 b83e
000001b0: c959 88bf 59a9 893f 246d 3a3f 9d33 91bf
000001c0: ddb8 3e3f 30ca cf3f 8ec9 bfbe 043d c63e
000001d0: 9b31 a4bf ef3c 86bf aee8 dcbe 4c8f 9d3d
000001e0: eccd 8dbe 7afe 9a3e 5449 33bf 406c ea3f
000001f0: be7e fe3f 12ec 30bf 6b0c 5ebf 8fde 8c3d
00000200: e5af aebf 79db f8be 7f6b bdbe 8e32 5e3e
00000210: fe6e f2be c909 9fbf ccaf 473f cde2 14bf
00000220: 61d0 b8bf 3fd2 f83f 37f9 ffbf 88f7 573f
00000230: be9b 8fbf a751 873f 0192 913f 369f a43f
00000240: 2a32 2ebe 298f a8be 4cc7 3ebe ff87 efbe
00000250: a588 c33e 4188 453f 6c63 bcbe 0a6d b0bf
00000260: 3bc9 323e a6b5 7f3d b9aa 3abf df61 8cbf
00000270: def2 ce3f 5841 aa3e a53b 993e 3ee3 28bf
00000280: 96fa 9e3d 0d9d 803f d7cc b3bf 7b9d 943f
00000290: 6f8c 0140 9fee 843e eaff 813e f646 febd
000002a0: 29fe d6be 4e11 48bf 2519 483f 8959 833f
000002b0: d86e fabd 8891 1e3f 5c08 77bf 01cd bc3f
000002c0: f034 80bf 9501 d2be aefb 7c3d 46e0 a6bf
000002d0: f02c 58bf 760b 63bf f295 47bf 87c5 e93f
000002e0: 3d69 09c0 f45c a5be 30da 0f40 e2ea 623e
000002f0: 95ae 9ebf 1541 85be 435c ba3f 35f7 e93e
00000300: 81af 59be 3dfe 8cbf 4e3f d2bf fa0e a53d
00000310: b9e6 a9bf b6c3 8d3f d5dd 3d3f ce2a cd3f
00000320: eefa 143f ecdb 9bbf 230f 2ebe bae3 b53f
00000330: f1fa 0b3f 0463 de3e 4c2b 42bf d8bc 12bf
00000340: 8e1d 5fbf c446 403f 3de1 7fbd 3992 bc3f
00000350: dab9 8ebe 329d a03e 441f 70bf 43a4 d93e
00000360: 4e5e 8dbf 6d88 13bd b369 e6bf 8e53 1b3e
00000370: 244b 15c0 9c87 22be 054b 84be 93cd aa3e
00000380: 2004 c93f beb4 a63f 2b89 aebf 3cab 1cbf
00000390: b013 d13e da54 adbe 7ca9 4a3f b028 8a3f
000003a0: 707a c03f b2bb 363f ee3a 66be ffe4 19bf
000003b0: c57d dcbf dacd 273f 6185 6a3f 453c a03e
000003c0: 9d04 d63f 3893 f93e 2a13 6d3f b4d1 bb3f
000003d0: 5f35 b73e 7519 603f da32 cf3f 4c4f 7c3f
000003e0: 17be e6bf 8921 d4bf 0b98 8cbf da23 873e
000003f0: f0b8 d53f fd15 183f dccc b73f 59a0 6ebf
-0.8376905 -1.1745712 -1.0994459 -1.2367315 0.8646646 0.5209324 -0.5992325 -1.7350962
-0.6901771 -1.2045946 -0.556548 1.3044297 0.6167514 1.4234403 -0.27949634 -0.28429693
-0.73216444 -0.5154844 0.17810865 1.6840446 -0.81664366 -1.1448152 -0.026659712 -1.8656927
0.17012112 -0.15769464 0.87457573 -0.81676036 -0.7838717 1.3218672 0.09678087 -0.5665423
1.530662 1.4866992 1.1154666 0.4116125 -1.7879071 1.0569139 -0.8162614 -1.9077882
-1.0041035 -1.2129743 -0.048792534 1.2219038 -1.9359583 0.59186983 -0.80247617 1.082377
-1.2624533 1.3320035 0.0072604073 -0.006063249 0.065876216 -0.7130444 -1.3313625 -0.0748492
1.4175028 -1.6750567 0.089633785 0.2673294 1.0348703 0.6662795 0.8881143 -0.0021295007
0.29947498 -0.24885929 0.93250304 1.204839 1.384253 0.14370674 -1.0503379 -0.56809217
1.1695446 0.5400634 0.77508 1.2638495 -0.89153266 0.7648272 1.0578059 -1.6770504
1.7775335 0.98261905 -1.6379613 -1.5886377 -1.0624706 -1.5694281 -0.4551808 -0.41623306
-0.70656776 0.54412603 -0.13962844 -0.40884203 1.0171567 1.3132104 -0.73124325 -0.74681294
-0.70445144 2.5057514 -0.6651916 -0.6509936 1.547534 -0.45094162 0.0030900575 -0.20025231
-0.50071126 -0.45894772 -0.6936054 0.36065024 -1.06524 1.0754806 0.72822785 -1.1343876
0.7450083 1.6233578 -0.37458462 0.38718426 -1.2827638 -1.0487345 -0.4314627 0.07693347
-0.27696168 0.30272275 -0.70033765 1.8314285 1.9882429 -0.69110215 -0.867377 0.06878387
-1.3647429 -0.48604944 -0.36996076 0.21698973 -0.47350305 -1.2424861 0.7800262 -0.5815857
-1.4438592 1.9439162 -1.9997929 0.8436208 -1.1219404 1.0571793 1.1372682 1.2861087
-0.17011324 -0.32921723 -0.18630713 -0.46783444 0.3819019 0.7716103 -0.36794603 -1.3783276
0.17459576 0.062429093 -0.7291675 -1.0967368 1.6167867 0.33252978 0.29928318 -0.65971744
0.07762639 1.0047928 -1.4046887 1.1610559 2.0241964 0.25963303 0.2539056 -0.124158785
-0.41990784 -0.78151405 0.7816337 1.0261699 -0.12228173 0.61940813 -0.9649713 1.4750062
-1.0016155 -0.41016832 0.061763458 -1.3037193 -0.8444357 -0.88689363 -0.77963173 1.8263406
-2.1470482 -0.3229748 2.247692 0.22159913 -1.2397028 -0.26026216 1.4559406 0.45696416
-0.21258356 -1.1015087 -1.6425569 0.08059497 -1.3273536 1.1075351 0.74166614 1.6028688
0.5819539 -1.217649 -0.16997962 1.4210122 0.5467978 0.43434918 -0.75847316 -0.573194
-0.8715447 0.7510798 -0.062470663 1.4732124 -0.27876168 0.3136993 -0.9379771 0.42508134
-1.1044405 -0.036018778 -1.8001007 0.15168592 -2.3327112 -0.15872043 -0.25838485 0.33359966
1.5704384 1.3023908 -1.363561 -0.6119878 0.40835333 -0.338538 0.7916486 1.0793667
1.5037365 0.7138015 -0.22483417 -0.60115045 -1.7225882 0.6554848 0.9160977 0.31295982
1.6720158 0.48745131 0.9260737 1.4673371 0.35782906 0.87538844 1.6187394 0.985585
-1.8026761 -1.6572734 -1.09839 0.2639454 1.6697063 0.5940855 1.4359393 -0.9321342

rnn.weight_hh_l0 f4 [16, 16]
00000000: b252 803e 414f 9c3c 9383 103d 1f46 9dbe
00000010: 1743 0fc0 7316 933f 2f78 de3f 3a7c eebe
00000020: 0ff0 0dbf 5d19 d9bf 6716 1b3f 74fe a9bf
00000030: 39d4 3fbe 7f0f 0840 ff2a 443e a81b b7bf
00000040: ad7a 393f f4d9 1f3e 1fb2 c63f 15ed dbbe
00000050: e2f7 093e e75d 743f 9316 793f 8de1 da3f
00000060: 75d3 eabf a7a8 edbf d398 b5bc f5e4 74be
00000070: 247c e03f df02 963f 1367 a43f f367 b1bf
00000080: fe80 af3e 4d9f 87bf 3d95 8c3f af10 bfbf
00000090: eacc 6bc0 f3d2 3fbe b1b5 1ebe 8074 ed3e
000000a0: 8d06 4a3f 2231 88bf 6a8b e2be 9871 14c0
000000b0: c0d4 1640 7c30 fa3f b169 143e 36f4 e93f
000000c0: aad4 a13f 77a0 b23f 414d 783f 4366 96bd
000000d0: 6b56 87bf b366 093e 4993 94be 07ec a43f
000000e0: e5ce e8bf 1f01 a2bf e8cd b93f 65a8 d2bf
000000f0: dfff 713e 15ed 9e3f 77e1 993f adfc ab3e
00000100: 4023 2437 b32a c83f b8fd 8abf 1f86 e13f
00000110: 42d4 d0bf 63a6 bd3f f77b e03f b2d0 7d3f
00000120: 59f4 eb3e 4d64 ccbf f9d6 883f d771 793f
00000130: c141 d53e 2330 b1be 08cf 03be c8a1 f9be
00000140: 19ba 403f d664 45bf f2f0 f23f 7daf 07bf
00000150: 0ab9 14c0 92b6 c9bd 85de efbe 7741 5e3f
00000160: 633f 0ac0 15b8 e3bf 4cd5 edbe e8ff 0540
00000170: bbd0 0040 4c6b 27bf c6b5 ec3e 081a 883f
00000180: 48b5 0e40 ceaf 873f 82e5 d73e 9486 0c40
00000190: 7345 86be 2c0c ec3f ccb1 b13f 0dc2 ba3f
000001a0: 581b 103f 472f 7cbf e92e 773f c370 dc3f
000001b0: 4e31 693e d6c1 f13f bef2 ed3f 7fad a0bf
000001c0: 4241 793e 51cd ca3f 5e89 893f 3048 333f
000001d0: a796 c7bf 08b1 14bf 4b83 b7be ce24 e13b
000001e0: fc4a b5bc b6e6 9dbf 0db8 503f 07f6 33bf
000001f0: cde7 893f f65e 3f40 ea69 8a3f 75e2 63c0
00000200: 37f3 82bf db77 823e 1459 50bf 47d8 47c0
00000210: eb36 873f 855f 42bf 5646 6bbf 80f3 aebf
00000220: e564 cd3f 8e54 3b3f 4f78 a9bd 2c41 0fbf
00000230: 2b90 00c0 b51f 513f a2ca dcbf 246b 3740
00000240: ff37 783f 9e47 47c0 b1f0 37be a981 48bf
00000250: 377c 1b40 2aeb 9fbf e4ed ee3c e402 0ebf
00000260: 9030 8d3f 0d5b f73f 4989 23bf 8b61 1e40
00000270: 242b 52bf 04cb 52c0 02d4 0cc0 0d70 3e3f
00000280: 6cb4 933f 52d1 8dbf 0ab4 db3f 3a40 2cbf
00000290: c724 0ec0 e9b8 5d3f 217b 163d 0816 b03f
000002a0: 66fb 0ec0 0816 d63d aa57 203e 6d95 59be
000002b0: d08c 223f 30bc 4b3f bfcf b8bf 799b 7cc0
000002c0: a00a 293f 2213 c63f 384f 08c0 96b2 bc3f
000002d0: b102 ca3f 62b1 eabf 4638 b5be 3631 f93e
000002e0: 9666 8bbf 4bcc 693f 4bf7 5ebf 1448 1b40
000002f0: a97a bd3f e4a4 a2be 1b9e db3d d5ea 54bf
00000300: c018 08be 179a b33f b774 e83d 4771 98bd
00000310: 2770 30c0 8b69 2e3f 5875 913e 4462 6b3f
00000320: d6c0 a5bf 5a0f bebf d424 c13f 12b4 9fbd
00000330: f9fd 2e3f aa67 053f 26a5 1140 f364 86bf
00000340: 6203 553e 2b5e 983e 2360 1940 efc5 d23e
00000350: 140c cdbf 266a 423f 0787 993f 42a1 043f
00000360: c255 ffbf 18b8 4fbf 4626 c23f 1129 493d
00000370: 3072 c43f 64ec 823f 8bbd f53f 6134 0fc0
00000380: f2cf 0a40 abf6 4f3f 6c49 ec3f 38f6 d43f
00000390: 7c0c 19c0 28ea 0d40 f087 8e3f f686 9b3f
000003a0: 3446 12bf ed4c 353f e404 323f 27fb 38bf
000003b0: 4439 823f ccbd 703f 02ac 1fbd a0cf 4cc0
000003c0: edfc 2940 8429 bd3f 195e d73f 4204 83be
000003d0: 6e24 94be 754a 2b3f 7dc0 463f 7683 413e
000003e0: b5ae 08c0 ea65 1bbf 9fff 0440 b80c ddbf
000003f0: 5695 3740 ca65 b33f a387 82bf 3935 393f
0.25063092 0.01908076 0.03528173 -0.3071756 -2.2384698 1.1491226 1.7380427 -0.46579152
-0.55444425 -1.6960865 0.6058106 -1.3280778 -0.187333 2.1259458 0.19157027 -1.4305315
0.72452813 0.15610486 1.5523108 -0.42954317 0.13473466 0.95455784 0.9730007 1.7100083
-1.8345782 -1.8567094 -0.022167599 -0.23915465 1.7537885 1.1719626 1.2843956 -1.3859848
0.342781 -1.059549 1.0983044 -1.4926966 -3.684382 -0.18732814 -0.15498997 0.46377945
0.78916246 -1.0639994 -0.4424699 -2.3194332 2.3567352 1.9546046 0.14493443 1.8277652
1.2643025 1.395522 0.9699288 -0.073437236 -1.0573248 0.13418083 -0.2901862 1.288453
-1.8188139 -1.2656592 1.4515963 -1.645764 0.23632763 1.2416102 1.2021931 0.33591214
9.783369e-06 1.5638031 -1.0858679 1.7619056 -1.6314776 1.4816402 1.7537831 0.9914657
0.4608486 -1.5968109 1.0690604 0.9743933 0.4165173 -0.34607038 -0.12871945 -0.48756242
0.7528396 -0.7710699 1.8979781 -0.5300215 -2.323794 -0.09849276 -0.46849456 0.8681864
-2.1601188 -1.7790552 -0.46451795 2.0937443 2.01274 -0.653981 0.46232432 1.0632944
2.2298145 1.0600526 0.42167288 2.195714 -0.2622486 1.8441215 1.3882384 1.459047
0.56291723 -0.9850964 0.96555954 1.7221912 0.22772714 1.8887279 1.8589704 -1.2552947
0.243413 1.5843908 1.0745046 0.70032024 -1.559285 -0.5808263 -0.35842356 0.0068708425
-0.022130482 -1.2336032 0.8153084 -0.7029728 1.0773865 2.990171 1.0813572 -3.5606968
-1.0230473 0.25482067 -0.8138592 -3.1225755 1.0563635 -0.75927 -0.919042 -1.366806
1.6046416 0.73175895 -0.082749 -0.5595882 -2.0087993 0.81689006 -1.7249339 2.8659143
0.96960443 -3.1137462 -0.1796291 -0.78322846 2.4294565 -1.2493641 0.02916617 -0.5547316
1.1030445 1.9324661 -0.63881356 2.4747036 -0.8209708 -3.293641 -2.20044 0.74389726
1.1539435 -1.1079504 1.7164319 -0.672855 -2.2209947 0.86610276 0.03673852 1.3756723
-2.2340941 0.10453421 0.15658441 -0.21248408 0.6349611 0.79584026 -1.4438399 -3.9469893
0.6603184 1.5474589 -2.1298351 1.4742 1.5782071 -1.8335383 -0.35394496 0.48670357
-1.0890682 0.9132735 -0.8709609 2.4262743 1.4803058 -0.31766427 0.107235156 -0.83170825
-0.13290691 1.40314 0.113503866 -0.07443481 -2.7568452 0.68129796 0.2840984 0.91946816
-1.2949474 -1.4848435 1.5089364 -0.077980176 0.6835628 0.52111304 2.2757049 -1.0499557
0.20802072 0.29759344 2.3964927 0.41166636 -1.6019311 0.7594322 1.1994332 0.5180856
-1.9948046 -0.8114028 1.516793 0.04911143 1.5347347 1.0228391 1.9198469 -2.237572
2.168942 0.8123576 1.8459907 1.663764 -2.391387 2.2174168 1.1135235 1.2150562
-0.5713837 0.70820504 0.6953871 -0.7225823 1.0173726 0.9403961 -0.0389824 -3.2001724
2.6560624 1.4778295 1.6825591 -0.25589186 -0.28934044 0.6691049 0.77637464 0.18897805
-2.1356633 -0.60702384 2.0781019 -1.7269506 2.8684897 1.4015439 -1.0197643 0.72346836

rnn.bias_ih_l0 f4 [16]
00000000: 2a04 e63e 9bee f93e 9146 c03d 8e02 943d
00000010: 3cae 0abf 8368 b43e 7bca 2a3f 263b 0a3f
00000020: 0946 53be d6cc 34bf 07a5 173f 7082 24be
00000030: 5756 413e 9d85 ba3e ab15 003f 42b5 dbbe
0.44925052 0.48814854 0.093884595 0.0722705 -0.5417211 0.35235986 0.6671521 0.53996503
-0.20632185 -0.70625055 0.59236187 -0.16065383 0.18880592 0.36430064 0.5003306 -0.42911726

rnn.bias_hh_l0 f4 [16]
00000000: d416 b53e 0de8 d83e 43ca fb3e d1c6 913e
00000010: 2cb3 46bf 1e93 f33e 500a 4a3f 9b51 1a3f
00000020: c4a4 e6be 5cab 35bf 76fe 0a3f af3d 59be
00000030: deea 033f 438a 9b3e dfab b23e 1bfb 56bf
0.3536898 0.4236454 0.4917775 0.28471997 -0.77617145 0.4757318 0.78921986 0.6028077
-0.4504758 -0.709646 0.54294527 -0.21214937 0.51530254 0.30378923 0.34896752 -0.83976907

fc.weight f4 [5439, 16]
00000000: 9297 20bd 7db2 2c3f 2ae1 dabd a43d a83f
00000010: ce16 a33f 5098 eebd ecca a53f 2dc7 953f
00000020: 434b 38bf 8ad2 a6bf a3c0 983f 8ad9 26bf
00000030: 773d 7f3f 33fd 203f abde 0cbf f49f 853f
00000040: 7d32 023f 0e68 cfbe c1f8 7a3f 276a 4f3f
00000050: 5d58 d13f 7b57 863f 30d8 55bf a18a 903f
00000060: 6922 1740 1493 bc3f c168 053f d791 0140
00000070: 059c 9c3f 6e69 fbbe 2554 373f c86a b4bf
00000080: 1dea b03f 76b7 26c0 841d eebf 7fb4 df3e
00000090: 21f6 0640 0100 733f 6ee9 0ebe 7dc1 b1bd
000000a0: 5b13 f93d 4621 1e3f 44d1 c03e cfa4 0ac0
000000b0: 9953 f5be 039e 833f 66d0 54bf 9103 f5bf
000000c0: 1d3d b7bf 8dcb 89bf de4d b43f 050a 7bbf
000000d0: 0eaa cfbe 3e08 71be 9938 8cbf a9f5 04bd
000000e0: b12d 583f 6a5c e23e fd48 babf 5327 bcbf
000000f0: 3466 94be c38d 783e 1f1b 32c0 7109 a03e
00000100: 4c5c e33e d102 203f 41e6 3b3f d72f 00bd
00000110: 8bde 813f 0519 1cc0 a892 933e 607c 0fc0
00000120: ec77 0abf 422a 0940 4578 4e3f 3980 68bf
00000130: cbf5 213f 4b30 39c0 608c d1bf 965e 8cbf
00000140: 4d12 683e 0a10 40c0 201a 2340 9595 08c0
00000150: 1d54 2740 69f3 b43f 9ad3 04bf 641c 933f
00000160: 00fe fb3f 30c4 cd3f d56c fa3e 1d69 ce3f
00000170: 5c67 be3e a370 45bf 4e87 f8bd 5e9b f6bf
00000180: 352f 2940 6069 cbbf 7e73 07c0 a3b2 1cc0
00000190: de58 9abf 8591 17c0 9861 653f ebd1 c5be
000001a0: 7727 9abe 5a2a 9b3f 5e47 30be 0b8e 3340
000001b0: a3ff 83bf b4b5 033e 2c38 bfbe 485c 8e3f
000001c0: 195c cf3e a1c9 873f ba75 ce3e 9c76 cb3e
000001d0: e7fe 92bf 4748 b33e cc0d cdbf 979c 21c0
000001e0: a55b 6cbf 06c5 19bf 6410 07c0 59a1 acbf
000001f0: fc0f 32bf cbfa 12c0 33c2 0ec0 a44e cd3f
00000200: 1249 803f f776 953f 71c4 a8bf 336a f93f
00000210: fe37 db3e 0b34 e03f 3326 6dbf 2f01 b7bf
00000220: 9f4d 993f ff00 60be d55e b83f 6a23 2140
00000230: 8b96 6f3f e961 93bf 920b 3d3f b1dd 50bf
00000240: d2d3 0e40 7c8c 533f 4466 14bf 84da 8fbf
00000250: 58b7 5ec0 d9e5 0ec0 f70a e83f 6e4f 56c0
00000260: 7d42 a8bf 59da 62bf c592 dc3e e6af 253f
00000270: 9b86 0bbf 655e 61c0 6f8a a23f d862 0c40
00000280: 91a9 ad3e 6b70 123f f040 1a3f 3e67 22c0
00000290: ec1d cebf f423 c23e 8186 563e cf0d 6f3e
000002a0: 26ad eb3f ee09 083f 8b7b c03e 43e6 0dc0
000002b0: fcfd 4e3e 26bb b5bd e785 03c0 df64 04c0
000002c0: 10c8 123d 978b 623e 7a48 dc3f d743 9b3e
000002d0: 416f 86be 6ef3 683d 0f73 5fbe 2b01 ab3e
000002e0: f0d0 8bbf 6cd3 4f40 38d6 18c0 0911 c7be
000002f0: cef3 b73e 3922 3040 fb1f 2e3f edae ecbf
00000300: 16a5 2f3f dde6 26c0 cc24 d7bf 49cf d63e
00000310: b548 f43f ba83 c1bf 328a 9bbe 6708 823e
00000320: 1657 62be cc05 523f 1ac8 c33d c863 1540
00000330: ec6d b63e 62b3 3e3e 25d7 92be 62ef 02c0
00000340: 6e4d 4ec0 da49 b9bf a12b ee3f 1391 063f
00000350: 7520 fe3f 6576 2d3f e6f0 20bd 2d68 3e3f
00000360: 9f19 0bbf 43e1 5c40 2938 543f 5431 0e40
00000370: 2487 0f3f 06ff 26c0 b023 b03e 6984 173f
00000380: 5ec4 10c0 0b4f 08c0 c54c 3f3f 1abc 633f
00000390: 5ecb b2bf d132 6d3f cd6e 61bf ed62 ff3e
000003a0: 208a 0240 764a 1040 8c70 3a3f 54ae e5bf
000003b0: 82db 0dc0 4889 09c0 2556 833f 35ac de3f
000003c0: ff56 eebf 6148 073f 7f81 823e c29a 9a3e
000003d0: d9e8 28c0 3c37 fabf 0b82 db3b c6a9 1bc0
000003e0: 4f15 25bf 150e 543f 0775 213f 2e85 8e3f
000003f0: 6a3d 0bc0 32a0 33bf b62a 983f f884 853f
-0.03920705 0.6745985 -0.10687478 1.3143811 1.2741334 -0.11650145 1.2952552 1.1701409
-0.7198984 -1.3033001 1.1933788 -0.6517569 0.9970316 0.6288635 -0.55027264 1.0439439
0.5085829 -0.40509075 0.9803582 0.8102135 1.6355091 1.0495447 -0.83533 1.1292306
2.3614752 1.4732385 0.52112967 2.0245264 1.2235113 -0.49103874 0.7161277 -1.4095087
1.3821446 -2.6049476 -1.8602757 0.43692395 2.1087725 0.9492188 -0.13956234 -0.08679483
0.12161895 0.6176952 0.37659657 -2.166309 -0.47915342 1.0282596 -0.8313049 -1.9141713
-1.4315525 -1.0765244 1.4086263 -0.98062164 -0.4055943 -0.235383 -1.0954772 -0.032460842
0.8444472 0.4421113 -1.4553524 -1.4699501 -0.28984225 0.24272828 -2.7829053 0.31257203
0.44406354 0.625043 0.73398215 -0.031295624 1.014604 -2.439027 0.28822827 -2.2419662
-0.54089236 2.1432042 0.80652267 -0.9082065 0.63265675 -2.8935726 -1.6370964 -1.0966365
0.22663231 -3.000979 2.5484695 -2.1341298 2.6145089 1.4136783 -0.5188538 1.1493039
1.968689 1.6075497 0.48911157 1.6125828 0.37188232 -0.77124995 -0.12135182 -1.9266164
2.6435063 -1.5891533 -2.116424 -2.4484031 -1.205837 -2.3682568 0.8960204 -0.38636717
-0.30108234 1.21223 -0.17214724 2.8055446 -1.0312389 0.12862283 -0.37347543 1.1121912
0.40499952 1.0608407 0.40324193 0.3973893 -1.148404 0.3501608 -1.6019835 -2.5251825
-0.9232734 -0.6006626 -2.1103754 -1.3486739 -0.6955564 -2.2965572 -2.230603 1.6039624
1.0022299 1.167693 -1.3184949 1.9485534 0.42816156 1.7515882 -0.9263641 -1.4297236
1.1976813 -0.2187538 1.440394 2.5177865 0.93589085 -1.1514255 0.7384578 -0.81588274
2.2316785 0.8263624 -0.57968545 -1.1238561 -3.4799404 -2.2327788 1.8128346 -3.348598
-1.3145291 -0.8861442 0.43080726 0.64721525 -0.54502267 -3.5213864 1.2698497 2.193533
0.3391843 0.57202786 0.60255337 -2.5375514 -1.6102881 0.37918055 0.20949747 0.23345111
1.8412216 0.5314015 0.37594256 -2.217179 0.20214075 -0.08873586 -2.0550478 -2.0686567
0.035835326 0.22123562 1.7209618 0.30325195 -0.26256755 0.056872778 -0.21821235 0.3339933
-1.0923138 3.2472792 -2.3880749 -0.38880184 0.35928196 2.7520888 0.6801755 -1.8490883
0.68611276 -2.6078408 -1.6808105 0.4195502 1.9084688 -1.5118325 -0.30378872 0.25397035
-0.22103533 0.82040095 0.09559651 2.3342152 0.3563074 0.18623117 -0.28679767 -2.0458608
-3.223476 -1.4475663 1.8607064 0.52565116 1.9853655 0.6775878 -0.03929224 0.7437771
-0.5433597 3.451249 0.82898194 2.2217607 0.56065583 -2.6093154 0.34402227 0.59186417
-2.2619853 -2.1298244 0.74726516 0.88958895 -1.3968313 0.92655665 -0.88059694 0.49880162
2.0396805 2.2545447 0.7282798 -1.7943826 -2.2165227 -2.149004 1.0260664 1.7396303
-1.8620299 0.52844816 0.25489423 0.30196196 -2.639212 -1.9548106 0.006698852 -2.4322371
-0.6448564 0.8283399 0.63069195 1.1134393 -2.1756234 -0.70166314 1.1888034 1.0431204

fc.bias f4 [5439]
00000000: 9f03 903f afc8 d1bf 2e11 cfbf 37ef 20bf
00000010: 461a 65be 718f b1bf a8f4 87bf ce01 83bf
00000020: 5ebb fdbe d83d 0fc0 5741 35bf 94db a3bf
00000030: 3ed4 55bf 7c3b 5dbf 461f d5be 41e1 d5be
00000040: 435e cfbf 697c dabf dc22 b7be e197 bbbe
00000050: 8e22 37bf 2f0a b4bf 90ca abbf 771f bebf
00000060: 633c 30bf 00f5 33c0 294a 03bf 70d0 92bf
00000070: c8f6 81bf 07d2 32bf 7cf4 77bf 3dae 84bf
00000080: fc65 92bf b69d b0bf 1419 20bf 450a 35bf
00000090: f79f 74c0 c081 3dbf 2584 f2be c224 c9bf
000000a0: 5b98 e5be 05ea 73bf b8cf efbe 1bc9 40bf
000000b0: 7731 05bf d5fc 8fbf 2ff0 ccbf 80d6 53bf
000000c0: 79a6 99bf ff31 863d 35cc a5bf 3cf8 c1bd
000000d0: 518e 21bf 7b0c efbf ccc4 88bf 1c1d abbf
000000e0: ef29 ccbf 91e6 19bf 236b 06bf d195 b2be
000000f0: 2bf0 61bf a62e 15bf f051 b0bf 3c1a cabe
00000100: 7a65 3d3f 2705 d5be c451 2dc0 519b 7bbf
00000110: a4d4 423e 1628 d9bf d421 483d a12d 2abf
00000120: 8e82 84bf 39c3 b6bf 042e 8dbf cd94 e0be
00000130: 7054 fdbf ed2d 2fbf 0fc5 ddbf 3193 4e3d
00000140: ec7b f4be d07c 903f e2af 5ebf 54ce 8bbf
00000150: d00c cfbf 7ef9 2fbf f21a cebf b1b8 0fc0
00000160: 1496 c5bf c32b 24bf 4ce8 973f be0c 44bf
00000170: 008e aabf 9df3 0ebf aa65 c5bf 9a23 56c0
00000180: cc1b 5ac0 28f8 1ebe c4ac 8ebf 6336 aabe
00000190: a1bb 49c0 d69f 27bf 4b14 a0bf be6c 77bf
000001a0: d8ef d1be b24e 9ebf ff46 9e3f 1ab8 8fbf
000001b0: ea6a 943f c714 29bf 8cf2 5dbf 16b7 32bf
000001c0: 5252 27bf c57e 61bf 417b 7ebf f66c 4cbf
000001d0: 21f6 89bf a218 85bf f68d 573e 8067 53bf
000001e0: a0c5 83be 0227 27bf 7a27 27bf 9023 98bf
000001f0: bb17 4f3f 1198 8ebf 9300 dcbf d3cf 3cbe
00000200: 4d64 cabf 9d6b 0e3f ab52 6fbf 6090 ccbf
00000210: 3c40 06c0 3338 42bf ac80 cabf 3ebb 2dbd
00000220: e0ad b3bf 7f35 c73c 8d5f 2ebe c85f b4be
00000230: efcd 53bf 6832 e5bf a7b6 02c0 e467 23bf
00000240: 930e 7dbf 8fb6 60bf fa66 45bf 7e26 e63e
00000250: a123 56bf 2b77 32c0 21c3 3cbf c8e8 1cbf
00000260: 446d 84bf da25 9dbf 544d 95bf ce35 98bf
00000270: 2227 aebf 4f3a 75bf ac62 04bf 7bf6 90bd
00000280: e06d 4ebf 81e9 d7bd 6eda cebf 2198 f9bf
00000290: 77c4 9ebe 4ade b7bf 4476 18c0 62a8 6dbf
000002a0: 0090 03bf 091e 78bf 7b32 56bf 4332 97bf
000002b0: 275e febe 751c ccbe 5d59 70be 4570 4d3f
000002c0: 7c46 aebf 038c bdbf 8e91 65bf e526 c3be
000002d0: 1e4d a1bf ec64 34bf 5e7d e7bf ebf7 4ebf
000002e0: c793 adbf 785b f2be 4f5b c3bf bcf7 0a40
000002f0: 3956 b0bf 93e3 a4bf 99ef 8b3f 8614 3dbf
00000300: 020a 7abf cff9 9dbf 750f afbe c4cc 29c0
00000310: fe8f a6be f86f 55bf 05a8 10bf 5405 f9bd
00000320: f45d 51bf 1e2c e1bf bd0a 8cbf 2a50 78be
00000330: b3b8 0e3f 9810 69bf 1b10 83bf a1a2 4ebf
00000340: 1993 eebf 5c0d 4fbf 4924 1ac0 ade8 d3bf
00000350: bc86 bebf 02dd 95bf ba4a f8bf a00e 6fbf
00000360: 0247 fbbe 8e52 6bbf d915 30bf 1fe3 27bf
00000370: be70 94bf c821 31bf 1168 03bf 401d 8bbf
00000380: 8b03 20bf 4077 e23d 0fb2 b2bf b304 cdbe
00000390: fe96 17bf 8fb9 ef3e 75d8 dcbe 5476 a4bf
000003a0: 93dd a5bf 7f68 73bf 74e4 d3bf 7d88 b2bf
000003b0: 6558 efbf bd8b d3be f9bf 2ebf eb84 babf
000003c0: 50c6 b8bf 7bf8 8cbf a3fc 53bf b7a9 a4bf
000003d0: 1035 8cbe e056 78bf e2df 183d 93ed 89be
000003e0: fe4e 4fbf 3a9f 30bf 922c 7ebf 9dce 02c0
000003f0: 4d66 19bf 2936 a1bf cbc8 54bf 1506 da3e
1.1251105 -1.6389369 -1.6177118 -0.6286501 -0.22373304 -1.38719 -1.0621538 -1.0234926
-0.49557012 -2.2381496 -0.70802826 -1.2801385 -0.8352698 -0.8641889 -0.41625422 -0.41773418
-1.6200641 -1.7069217 -0.35768783 -0.36639312 -0.715371 -1.4065608 -1.3421192 -1.4853352
-0.6884214 -2.8118286 -0.51285034 -1.146986 -1.0153437 -0.69851726 -0.9685743 -1.0365673
-1.1437373 -1.379813 -0.62538266 -0.70718795 -3.8222635 -0.7402611 -0.47366443 -1.5714343
-0.448428 -0.9527896 -0.46838164 -0.7530686 -0.520286 -1.1249033 -1.6010798 -0.82749176
-1.2003928 0.06552505 -1.2952944 -0.09471175 -0.6310778 -1.8675684 -1.0685058 -1.3368258
-1.5950297 -0.6011744 -0.5250723 -0.34879926 -0.8825709 -0.58274305 -1.3775005 -0.3947314
0.73982966 -0.41605493 -2.7081156 -0.9828387 0.19026428 -1.6965358 0.048860386 -0.66475874
-1.0352342 -1.4278327 -1.1029668 -0.43863526 -1.9791393 -0.6842945 -1.7325763 0.05043334
-0.47750795 1.128809 -0.86987126 -1.0922341 -1.6175785 -0.6874007 -1.6101973 -2.2456477
-1.5436425 -0.64129275 1.1867766 -0.76581943 -1.3324585 -0.55840474 -1.542165 -3.345923
-3.4079466 -0.15524352 -1.1146474 -0.3324462 -3.152077 -0.65478265 -1.2506193 -0.966503
-0.410033 -1.2367766 1.2365416 -1.1228058 1.1595128 -0.6604733 -0.8669822 -0.69810617
-0.65359986 -0.8808406 -0.9940682 -0.7985376 -1.0778238 -1.0398142 0.21050248 -0.82579803
-0.25736713 -0.65293896 -0.6529461 -1.1885853 0.80895585 -1.1140157 -1.7187675 -0.18438654
-1.5811859 0.55632955 -0.93485516 -1.598156 -2.0976706 -0.75867003 -1.5820518 -0.042414896
-1.4037437 0.024317501 -0.17028637 -0.35229325 -0.82736105 -1.7906008 -2.0423982 -0.638304
-0.98850363 -0.8777856 -0.77110255 0.44951242 -0.83648115 -2.7885234 -0.73735243 -0.61292696
-1.0345845 -1.2277176 -1.1664224 -1.189142 -1.3605692 -0.95792097 -0.5171306 -0.070782624
-0.80636406 -0.10542584 -1.616041 -1.9499551 -0.31009266 -1.4364712 -2.3822184 -0.92835057
-0.513916 -0.9692083 -0.8367078 -1.1812214 -0.49681208 -0.3986546 -0.2347159 0.80249435
-1.361526 -1.4808353 -0.89675224 -0.38115612 -1.2601659 -0.70466495 -1.8085134 -0.8084704
-1.3560723 -0.4733541 -1.526224 2.1713705 -1.3776313 -1.288195 1.0932494 -0.7385944
-0.9767152 -1.234186 -0.3419148 -2.653123 -0.32531732 -0.83373976 -0.5650638 -0.121592194
-0.81783986 -1.7591588 -1.0940777 -0.2424933 0.5575058 -0.91040945 -1.023929 -0.807169
-1.8638641 -0.8087976 -2.4084647 -1.6555382 -1.4884868 -1.1708071 -1.9397805 -0.9338169
-0.49077612 -0.91922843 -0.68783337 -0.65580934 -1.1596906 -0.6919217 -0.5133067 -1.0868301
-0.62505406 0.110579014 -1.3960589 -0.40042648 -0.5921477 0.46821257 -0.43133894 -1.2848611
-1.2958244 -0.95081323 -1.6554093 -1.3947903 -1.8698851 -0.4131755 -0.6826168 -1.4571813
-1.443552 -1.101333 -0.8280737 -1.2864293 -0.27384233 -0.9700756 0.037322886 -0.26939067
-0.8097991 -0.6899296 -0.9928676 -2.0438607 -0.59921724 -1.2594653 -0.83118886 0.42582765
